comp5214hw1/CAN.pth (torch, 127375 bytes, 10 tensors)

conv1.weight f4 [32, 1, 3, 3]
000000 e7 84 0e be bc 15 96 bd fa 40 08 3e c6 47 2a 3e
       -0.13917886 -0.07328364 0.13306037 0.16628942
000010 85 9f 16 be 0d 58 0a be 57 32 b4 bb 43 06 54 bd
       -0.1470929 -0.13510151 -0.005499165 -0.051763784
000020 d9 4b 12 3e 0a f3 3b bf 3b bd e1 be 58 6b d8 be
       0.14286746 -0.73417723 -0.44089684 -0.42269397
000030 33 fa 97 be cb 27 44 bd fa c3 11 3f c1 5d 15 3f
       -0.29683074 -0.047889512 0.5693966 0.5834618
000040 19 e8 85 3f e8 c5 4f 3f 76 f5 cb be 6e 1e af be
       1.0461456 0.81161356 -0.3983571 -0.34202904
000050 00 c0 e4 3e 95 ab ba 3d fc cf c3 3e 4c 19 e1 bc
       0.44677734 0.09114758 0.38244617 -0.027477883
000060 fc dc c1 3d 3a 1a ee 3d 6e 8a 16 bf af 3c 9c 3e
       0.094659775 0.11626096 -0.58804977 0.30515048
000070 6f 98 aa bc f3 5b 13 bd 69 7e 65 bc 69 85 c7 3e
       -0.02082464 -0.03597636 -0.014007189 0.3896897
000080 8a ee c1 be b0 60 8a 3d 7c aa 45 be 60 0b 4a 3e
       -0.37877303 0.06756723 -0.19303316 0.19730902
000090 b0 40 9b 3d 11 29 9f 3e c1 93 e1 bb 0a 01 19 3f
       0.075806975 0.3108602 -0.0068840687 0.5976721
0000a0 90 75 c0 3f 56 e5 6f 3f 92 be 5f 3f 5c de 7e 3f
       1.5035877 0.93709314 0.8740016 0.99558043
0000b0 ba 26 32 3f 4a d3 b3 3d f2 3f 0a be a5 b8 0d 3e
       0.6959034 0.087805346 -0.13500956 0.13839968
0000c0 36 96 c8 bc e6 bb a5 bd 2c 1a 09 3e 64 1a 22 be
       -0.024485689 -0.080924794 0.1338889 -0.1583038
0000d0 e4 ca b9 bd d4 83 b5 3d df ff 6e bf 36 91 a0 3e
       -0.090719014 0.08863035 -0.9335918 0.31360787
0000e0 d3 3d 31 3e 2b ef 6b 3f 0c 27 c6 3f 42 d9 8a 3f
       0.1730874 0.92161816 1.5480666 1.0847552
0000f0 6d 5a 10 3f de fc 83 3f 63 17 53 3e 92 49 ae be
       0.5638798 1.0311544 0.2061439 -0.34040505
000100 3c 10 e6 3d 1a 3b b8 3d 50 e1 16 be f1 8e 3c 3e
       0.11233565 0.08995648 -0.14734387 0.18413903
000110 6c e3 b7 3d 50 47 4a 3e 9c 9b d4 be a9 cc 99 3d
       0.08978924 0.19753766 -0.4152497 0.07509739
000120 9a 28 b9 bb c0 bf 4f 3e aa 28 fe bd 5c 38 cf bd
       -0.005650592 0.2028799 -0.124101 -0.101181716
000130 e0 37 c1 bd f3 26 6e 3e 41 94 ef 3d b1 10 5f be
       -0.094344854 0.23257045 0.11698199 -0.21783711
000140 07 28 78 be 4a 5b ed bc 26 2d 93 3e 7b 12 9e be
       -0.24234019 -0.028974194 0.28745383 -0.30873474
000150 06 41 82 be 0b e9 b2 bd f4 62 bc bd b2 92 9e 3d
       -0.25440234 -0.08735856 -0.09198561 0.07742824
000160 22 77 99 be 5e eb c4 3d 66 49 76 3d 95 21 00 3f
       -0.29973704 0.09615205 0.060128592 0.5005124
000170 7a 80 55 bd ac de f4 3e ca e0 12 3f 83 8d 51 bb
       -0.052124478 0.47826135 0.5737425 -0.0031975217
000180 a3 9e d8 be f0 bc c5 3e 6c 29 58 3a df b3 49 be
       -0.4230853 0.3862071 0.00082459184 -0.19697522
000190 95 81 7c be 5e a5 3f 3e 6d a6 56 be 9f 04 79 be
       -0.24658807 0.18715426 -0.20961924 -0.24318169
0001a0 19 1b 9d 3e 3d a1 d8 bd 5c fd e1 3c d1 42 ba 3e
       0.30684736 -0.10577629 0.027586631 0.36379102
0001b0 6e 1b 49 3e 83 dd 80 be c5 fc 82 be 43 5e 2e bc
       0.1963937 -0.25169 -0.25583473 -0.010642591
0001c0 f1 26 8e bc dc 6b 0b be 17 64 51 be 09 79 df be
       -0.017352553 -0.13615364 -0.20448337 -0.4364703
0001d0 6d 34 8d bd 9a 0a 3c be db 9c 84 be 8f b1 b3 be
       -0.06894765 -0.18363419 -0.2590092 -0.35096404
0001e0 4d e9 52 be c7 30 d3 3e 9c f9 18 be d9 85 be 3e
       -0.2059681 0.41248152 -0.14938968 0.37211493
0001f0 94 9b c5 3d 8a f9 9e 3e 3f a4 ea 3e ee 91 77 3e
       0.09648815 0.31049758 0.45828435 0.24176762
000200 42 b1 61 bf c0 72 69 3f f8 3f 2f 3f 5c 88 aa be
       -0.881611 0.9119072 0.68456984 -0.3330716
000210 f8 b4 f3 3e 78 04 01 3f 84 85 5f be b6 f3 3b bc
       0.47599006 0.50397444 -0.21828276 -0.011471679
000220 56 27 fe bd a6 78 57 3e b0 21 68 be 02 b7 a0 be
       -0.124098465 0.21042117 -0.22669101 -0.31389624
000230 8d 15 1e be ee 66 87 bd a5 0a a2 3e 02 97 c1 3d
       -0.15437908 -0.06611429 0.31648746 0.094526306
000240 4f d9 dc 3e 2f c0 14 3f 0d f3 e9 3d 00 41 1c 3f
       0.43134543 0.5810575 0.114233114 0.6103668
000250 2a e4 f8 bd 32 a8 31 be 00 7b b1 3e 52 d9 fe be
       -0.12152894 -0.17349318 0.34664154 -0.49775177
000260 d7 ec 26 bf 5f 2f 88 3e 79 a9 86 be 25 29 91 3e
       -0.6520514 0.2659864 -0.26301172 0.28351703
000270 2c 0b 85 be b3 48 17 bd a7 f2 ab 3d 80 13 3e be
       -0.25985086 -0.036934566 0.08395892 -0.18562126
000280 0b 2d 67 3e 9a e3 63 be a5 b9 8d 3e c2 c4 46 3e
       0.22575776 -0.22254792 0.27680698 0.19410995
000290 43 c6 e2 bd 34 5d 1f 3f 61 35 a5 3d a9 ba b0 3d
       -0.11072972 0.6225159 0.08066822 0.086293526
0002a0 69 53 a1 be ed fd a7 3e e0 48 97 be 44 52 d6 be
       -0.3150895 0.32810917 -0.29547787 -0.4185964
0002b0 de 7a 88 be 07 fd 03 bf 36 63 e1 be 60 c1 e1 be
       -0.2665624 -0.51557964 -0.44021004 -0.44092846
0002c0 c0 53 07 bf 82 ae 08 bf 9d bf b7 be 81 74 9d be
       -0.5286217 -0.5339128 -0.35888377 -0.30752948
0002d0 df 66 50 bc 38 26 9e 3e 18 0e bf be af 9b e2 3e
       -0.012719839 0.30888534 -0.3731544 0.44259402
0002e0 c4 7e 64 be 04 2d 48 bf c4 cc eb 3e d7 54 95 3e
       -0.22313982 -0.7819369 0.4605466 0.2916629
0002f0 bd b7 28 3e 52 03 86 3e 70 ef b7 3e 14 71 e4 3e
       0.1647634 0.26174408 0.35924864 0.44617522
000300 c9 aa 24 3f 5b 2b ac 3e 31 0a e7 3e 52 d1 d0 be
       0.643231 0.33626828 0.45124963 -0.407847
000310 e8 f7 9a be 80 ad e1 be 6b 90 99 3c 76 6e d9 3e
       -0.30267262 -0.44077682 0.018745622 0.42467088
000320 dd b1 3f bb 97 7a 1c be b2 45 5d be bb 56 c4 3e
       -0.0029250302 -0.1528114 -0.21608618 0.3834742
000330 0a bd 1c bf 4e 11 c8 be 1a a0 94 be 98 ad ff 3e
       -0.6122595 -0.39075702 -0.29028398 0.4993713
000340 0d b6 b7 3e cf 43 f6 be d5 db ab bd 12 bf 80 3d
       0.3588108 -0.4809861 -0.08391539 0.06286444
000350 d9 92 1d bf 61 26 53 3e 22 44 03 3e da 6f 03 3f
       -0.61552197 0.20620109 0.1281896 0.51342547
000360 e7 a6 19 be ac c4 14 3f d4 95 bf 3e 6f 3a 10 3f
       -0.15005074 0.581126 0.37418997 0.5633916
000370 f7 79 44 3f 12 1f 55 3e 17 73 5d 3e 9d 1e ea 3e
       0.76748604 0.20812634 0.21625935 0.4572648
000380 da eb ff be ae d8 6d be a6 0f d8 be 4b a5 03 3f
       -0.49984628 -0.23227188 -0.4219944 0.5142409
000390 56 0c a6 be 68 3b a3 3d e7 58 85 3e 2c bf 88 bd
       -0.32431287 0.07970315 0.2604439 -0.06677088
0003a0 50 fe 01 3d c3 29 87 3d 44 25 f6 3d 29 d9 ae bc
       0.031736672 0.06599762 0.120188266 -0.021343784
0003b0 d5 20 c3 3e 10 d2 c1 3d 8d 8d 0f bd 7c 7e d9 3e
       0.38110986 0.09463894 -0.035047103 0.42479312
0003c0 08 9a 84 be 7b 48 0b bd 2e fd 27 3e 7e 5f af bc
       -0.25898767 -0.03400467 0.16405174 -0.021407839
0003d0 c5 58 dd be ed 60 1b bf 41 13 8c be 5b ef 09 bf
       -0.43231788 -0.6069477 -0.2735844 -0.5388085
0003e0 22 87 c3 be 2a 4c 18 bf fb a9 fb be 56 38 e4 bd
       -0.38189036 -0.5949122 -0.49153122 -0.11143558
0003f0 a2 9f 80 be dc a4 19 be 91 6c 18 be c0 d4 0a 3e
       -0.2512179 -0.15004295 -0.14885165 0.1355772

conv1.bias f4 [32]
000000 45 de d4 bd 51 2a df 3d 0d 99 27 bc 5d 71 05 3d
       -0.10393957 0.10896743 -0.010229361 0.032578815
000010 c9 00 5e 3b 03 15 aa be 97 d7 e0 3c 3d 2e df 3c
       0.003387498 -0.33219156 0.027446551 0.027243728
000020 57 5c 5a be 8a 42 64 be bf e2 7c 3b 46 67 f4 ba
       -0.21324287 -0.22291008 0.00385873 -0.00186465
000030 1c 60 81 3e ee 40 03 3f a7 9c eb b9 ea e7 28 be
       0.25268638 0.5127095 -0.00044939408 -0.16494718
000040 06 98 94 bb e6 a9 85 be 12 04 27 3d b2 97 1e 3f
       -0.004534724 -0.26106185 0.040775366 0.6195022
000050 21 1b 66 3e e7 a4 ff 3d c0 91 b1 3e 36 5f 94 3b
       0.22471286 0.124826245 0.3468151 0.0045279516
000060 b7 8a 13 ba 8e ed ba 3d b2 eb a9 be 5e 89 29 3f
       -0.0005628275 0.09127341 -0.33187634 0.6622523
000070 9d a5 90 be 05 f6 8e 3e 63 07 a0 3d a2 dc 46 3c
       -0.28251353 0.27922073 0.07813909 0.012137564

conv2.weight f4 [32, 32, 3, 3]
000000 aa 90 f8 b7 d5 db d5 3c 69 97 6f bc c9 18 1f 3d
       -2.9631268e-05 0.0261058 -0.014623501 0.038841996
000010 39 c1 9f 3c 56 df cf 3c 8c 9e 3a 3d 19 91 27 bd
       0.019501315 0.02537505 0.04556136 -0.04090986
000020 f6 ea a7 3b e5 20 cf bc b7 1a 2f bd 77 e5 14 3d
       0.005124445 -0.02528424 -0.042750087 0.036351647
000030 56 3d a4 bc 62 d5 91 bd ac 2f 80 bd d6 92 5e 3d
       -0.020048779 -0.07120778 -0.06259093 0.054339252
000040 99 11 60 3d 7b 4a 44 bc d9 2c c1 bc 6e 34 2a 3d
       0.054704282 -0.011980648 -0.023580955 0.041553907
000050 c5 13 4c bd 39 bc be bc 10 c2 c1 bb 74 d8 4c bd
       -0.04982354 -0.023283111 -0.0059130266 -0.050011113
000060 a5 de 38 bd a4 0b 53 3d cb 9d 14 bd 72 1c 5f 3d
       -0.045134205 0.051524773 -0.036283296 0.054470487
000070 64 53 87 bd 47 02 b7 bc 03 60 d2 bc eb f8 66 bc
       -0.066077024 -0.022339953 -0.025680548 -0.014097433
000080 89 42 21 bd 3d 73 16 bd c9 01 93 3b 24 c8 43 3d
       -0.039370093 -0.036730994 0.004486297 0.04779829
000090 9d df f8 bc 14 28 48 be ea 41 34 3d ce 8b bb 3c
       -0.030380065 -0.19546539 0.044008173 0.022893813
0000a0 32 e7 3b be 30 f7 a1 bd 3e ae 86 3e 38 fd e0 3c
       -0.18349913 -0.079084754 0.2630481 0.027464494
0000b0 e9 28 39 bd 3f 82 39 3c 1c c9 6e bd ab b7 06 bd
       -0.04520503 0.011322557 -0.05829726 -0.032890003
0000c0 2d 19 5b bd 31 7b 55 3d 03 ef 73 3b ca 38 39 3d
       -0.053490806 0.052119438 0.003722132 0.045220174
0000d0 9f 07 74 bb 08 f5 58 3d 7a 19 c8 bd 0f 58 2b be
       -0.0037235988 0.052968055 -0.09770484 -0.1673281
0000e0 f6 f4 42 3c 91 d5 3d 3d c8 9a 53 be 9d c3 01 3d
       0.011899224 0.04634625 -0.20664513 0.031680692
0000f0 4a 0f 2b 3e 37 23 37 bd ce 3d 8e bd d3 f8 08 3d
       0.16705051 -0.044711318 -0.06945382 0.033440422
000100 ac 9a 3d bd 4a 99 57 bd 9d 82 1e 3d c2 4c 09 3d
       -0.046290085 -0.052636422 0.03869878 0.033520468
000110 71 45 4d 3d b8 be 84 3c 21 a4 6a bd 07 7c c5 bc
       0.050115053 0.016204223 -0.05728543 -0.024106992
000120 a0 cd 8e 3c 71 cf 7d 3c 3d 80 f2 3b 6e 46 89 bc
       0.017432034 0.015491352 0.007400541 -0.016757216
000130 db a1 ef bc 81 d4 22 bd 67 2c cc bc 9a 62 3f bc
       -0.029251983 -0.03975344 -0.024923516 -0.011681223
000140 a2 86 1c 3d 35 95 20 3d f9 5c 42 3c d9 d4 44 3d
       0.038214333 0.039204795 0.011862987 0.04805455
000150 73 98 1f 3d 46 e2 b2 bc 91 12 0f bd 79 b1 7b bc
       0.038963746 -0.021836411 -0.034929816 -0.015362137
000160 e8 4f d3 bb 2b 3e 12 3d 15 c6 28 bb 94 09 4a bd
       -0.0064487346 0.03570382 -0.0025752832 -0.04932554
000170 48 7b 37 3d 9f 28 16 bd bd f0 f4 bd e9 26 a7 3c
       0.044795305 -0.036659833 -0.1195998 0.020404296
000180 8c 15 f0 3d 08 68 ce bc 44 0e bb 3c 0e 6b 80 bd
       0.1172286 -0.02519609 0.02283395 -0.06270419
000190 ff 40 14 bd 0b 48 b8 bc 3b 0b 22 3d f9 ab ad 3b
       -0.036194798 -0.02249529 0.03956149 0.0053000418
0001a0 09 32 39 bd c5 ef 12 3d 23 64 d6 bc b5 b5 65 3b
       -0.045213733 0.035873193 -0.026170796 0.0035050933
0001b0 bd 3c 81 3d d9 b6 3e bb 73 4d 48 bd 8f df 73 bd
       0.06310413 -0.0029100685 -0.048901986 -0.059539374
0001c0 6c ee 87 3d 3a b6 51 3d 11 a8 1b 3d 34 ab f0 3b
       0.06637272 0.051199175 0.038002077 0.0073446278
0001d0 45 4f 65 bc b2 95 28 3c 81 a2 38 3d 30 48 39 3d
       -0.01399595 0.010289596 0.04507685 0.04523486
0001e0 5d f3 41 3d b5 1f b9 bc 2c c3 5f 3d 9a bb 28 bc
       0.04735123 -0.022598127 0.05462949 -0.010298634
0001f0 34 3b 8c 3d 30 5e 0d bd c1 8d 99 bb dc 2f c3 bd
       0.068472296 -0.034513652 -0.004686088 -0.09530613
000200 a1 d8 e3 3c f9 81 c6 3d 9e 1e 10 be 34 10 b0 3c
       0.027813258 0.09692759 -0.1407418 0.021492101
000210 be 44 20 3e 24 2e 66 3d 36 43 db bc 4c 49 90 bc
       0.15651223 0.056196347 -0.026765447 -0.017613076
000220 a7 61 49 3d 02 b1 58 36 12 07 a8 bc 1a 60 d5 bc
       0.049165394 3.228954e-06 -0.020511184 -0.026046801
000230 03 96 22 bd 78 14 1d 3c 96 30 64 bd 2f 71 48 3d
       -0.039693844 0.0095874 -0.055710398 0.048936065
000240 5c 35 7c 3d db 38 cf 39 26 a9 83 bc fd b2 f5 3c
       0.061574325 0.00039524477 -0.016071867 0.029992575
000250 f9 eb bc bc 69 5e 9f bb 3c ff f9 ba 49 50 81 bd
       -0.02306174 -0.0048635495 -0.0019073258 -0.06314141
000260 34 34 75 bd c8 a9 b2 3c 8f 78 32 3d 36 d2 1f 3d
       -0.059864238 0.021809474 0.043572005 0.039018832
000270 88 e7 62 3d 89 64 ed bc 6d 77 63 bd e8 92 a2 bc
       0.055396587 -0.028978603 -0.055533815 -0.019845441
000280 0d 21 89 bc f0 d3 80 bb aa 28 5e bd f2 c5 5f 3c
       -0.016739393 -0.003931515 -0.054238 0.013658034
000290 4e 5a 60 3c 1c 8b f9 bc f9 da c5 bc 94 e2 5f 3c
       0.013693405 -0.03046184 -0.024152266 0.01366486
0002a0 b5 df c9 3d 3a 4f 32 3c d4 d2 eb bb 07 96 de 3c
       0.09857122 0.010883147 -0.0071967635 0.027171148
0002b0 c3 ee e3 3d c4 39 82 3d bd 4c b0 bc 62 52 66 3c
       0.111295246 0.06358674 -0.021520967 0.0140577275
0002c0 2b be b2 3c af 84 be bd 23 e8 b4 3c 14 9e 44 bd
       0.021819195 -0.09302651 0.022083348 -0.048002318
0002d0 91 50 8f bc 0e 9f ac bc 13 97 a9 bc de 5f d0 3d
       -0.017494472 -0.021071937 -0.02070192 0.10174535
0002e0 17 37 2f bc 36 27 76 3c 5d 8d d3 3d e8 a0 8a 3d
       -0.010694287 0.015023997 0.10329697 0.06768972
0002f0 ef 1a 91 bc 27 0f 7c 39 d4 34 9b bd de 39 80 3d
       -0.017713038 0.00024038237 -0.075784355 0.06261037
000300 03 d3 a9 bc fa c6 54 bd d8 5a d1 bb c3 c8 7a 3c
       -0.020730501 -0.05194757 -0.0063890032 0.015306654
000310 38 a1 a9 bc bc fe ce 3c a7 8f 9e 3c 87 50 97 3d
       -0.020706758 0.025267951 0.019355608 0.07388406
000320 ad 8a 7d 3d 6a 92 81 bc 84 5b c4 3c 37 f2 8a 3d
       0.06189983 -0.015816886 0.02396942 0.0678448
000330 40 d4 53 bc 40 f0 b3 bc 99 9c 02 bd 11 75 67 bd
       -0.012929022 -0.021965146 -0.031887624 -0.056508128
000340 d9 fd 7f bd 77 2f 0c bd 93 18 4a bc c2 e3 5c 3c
       -0.062497947 -0.034224954 -0.0123349605 0.013482036
000350 ea a1 60 3d e9 85 aa 3d d5 4e c8 bc 30 c5 f3 bb
       0.054841913 0.083263226 -0.024451653 -0.007439278
000360 b4 e9 79 3a 5f e1 bd bd 91 c7 f7 3c 52 d3 84 3d
       0.00095334207 -0.09271502 0.030246528 0.06485619
000370 a4 86 c9 bd ee 1d 4c 3d c4 dc 0f 3d f6 25 58 3a
       -0.09840134 0.04983323 0.035122648 0.0008245403
000380 7a 20 48 3b 56 f3 26 3d 29 9b c6 3c 77 e3 8f bc
       0.0030536936 0.040759407 0.024243908 -0.017564518
000390 91 6b 90 bc 78 ba ab 3c e8 0d 92 3c 40 61 08 bd
       -0.017629417 0.020962939 0.017828897 -0.03329587
0003a0 e3 90 3f bd fc 7c d5 3c 84 da 6b bc d1 0a af bb
       -0.046769034 0.026060574 -0.01439536 -0.0053418656
0003b0 3a 24 bd 3c c6 84 92 bc 08 37 44 3d 91 30 80 3c
       0.023088563 -0.017885577 0.047904044 0.015648158
0003c0 9f a7 1e bc fc c9 4e bc 8b 7e 24 3d 24 c1 9d 3d
       -0.009683519 -0.012621399 0.040159743 0.07702854
0003d0 81 6c a4 3c 43 97 53 3d 94 a9 7b bc 59 1a b1 3d
       0.02007127 0.051657926 -0.015360255 0.086476035
0003e0 cd ff 85 3d f0 c9 a6 bd 7a 32 2c bd d3 72 a6 3c
       0.06542931 -0.08143985 -0.042040326 0.020318424
0003f0 25 47 c3 bb c3 ec 56 3d f8 a0 8b 3c c8 44 53 3c
       -0.005959409 0.052471887 0.01704453 0.012894817

conv2.bias f4 [32]
000000 d8 42 87 3d c4 be 1b 3d f3 a5 ab 3d 11 cf 1d 3d
       0.06604546 0.038023725 0.08381262 0.038527552
000010 5f 77 88 bd 91 ba e7 3d da 80 50 3a f7 9e 22 3d
       -0.06663393 0.113148816 0.00079537707 0.039702382
000020 fb dc d4 3d 58 5a 5e bb f9 b7 36 3c 21 80 fc bc
       0.10393711 -0.003392836 0.011152261 -0.030822815
000030 c8 5b 49 3d cb 38 03 3e d5 00 fa 3d a1 76 91 3d
       0.049159795 0.12814634 0.1220719 0.07102705
000040 28 56 d4 3d 48 dc 43 3e 12 9a d5 bc a5 3e d2 3d
       0.103679955 0.19127 -0.026074443 0.10265855
000050 75 32 cc 3e 16 55 0b 3b ca 6f 29 3f 6b 44 9b 3c
       0.39882246 0.0021260432 0.661862 0.018953523
000060 04 13 b9 3e a1 35 08 bd 96 ef aa 3d 8a 05 88 3e
       0.3614732 -0.03325427 0.08346479 0.26566726
000070 2c 5a 3a 3d a9 e4 6e 3e 27 de 29 3d d2 4a 4f be
       0.04549615 0.23329414 0.041471627 -0.20243385

conv3.weight f4 [32, 32, 3, 3]
000000 03 91 92 bc b7 7c 6a bc 9e 8e 87 bd 86 8b 07 3d
       -0.017891413 -0.014311961 -0.06618999 0.033092044
000010 cc ca 73 bc f4 00 a7 3a 6e 27 e1 bc 8d 38 dc 3d
       -0.0148798935 0.0012741373 -0.027484622 0.10752974
000020 6d 84 4f 3d 3f 8a 38 3d 75 2c 9a bd 00 a3 25 bd
       0.0506634 0.045053717 -0.07528011 -0.040438652
000030 0d a6 8b 3c c8 39 02 bd 02 d9 58 bd 6f 09 4e 3d
       0.017046953 -0.031793386 -0.05294133 0.050301965
000040 04 f9 75 bc a2 a2 ac bc c8 77 93 bd d6 a7 26 bd
       -0.015012983 -0.021073643 -0.07200581 -0.040687405
000050 19 7e a3 bd d7 f3 bd 3b c3 35 41 bd e9 4a dc bd
       -0.079830356 0.0057968902 -0.04717041 -0.107564755
000060 b2 02 ac 3d b1 63 7d bc f9 b6 9c bd e3 44 06 bb
       0.083989516 -0.015465663 -0.07652087 -0.0020487837
000070 58 c3 a0 bd 44 06 24 bd 1c 37 4d 3d 07 00 97 bc
       -0.07849759 -0.040045038 0.050101385 -0.01843263
000080 c1 a2 df bd f0 7e de 3c 46 b0 2b bd e6 ad 68 bd
       -0.10919715 0.027160138 -0.041916154 -0.056806467
000090 8d f6 8a 3d b7 28 8d bd e3 a4 b2 3d c8 26 05 3d
       0.06785307 -0.06892531 0.08722856 0.032507688
0000a0 57 d0 e8 3c 3b 30 84 3e 85 4b 26 3e 89 76 70 bd
       0.028419657 0.25818047 0.16239746 -0.058706794
0000b0 7d 0c c4 3d 5b 38 0b 3d 65 cd 21 3d 3f 90 7d bd
       0.095726945 0.03398929 0.03950252 -0.061905142
0000c0 cb 33 2b 3c 21 b5 bb bc 0c a8 fa 3b 82 d7 5a 3b
       0.01044936 -0.022913517 0.0076494273 0.0033392613
0000d0 d3 50 86 3d bb e5 e5 3c f0 9e aa bc 71 04 a9 bc
       0.06558385 0.028063646 -0.02082774 -0.020632
0000e0 a7 d1 04 bd df 31 36 bc 6a c2 fa 3c fc 40 65 3d
       -0.032426503 -0.011120289 0.030610282 0.055970177
0000f0 bb e9 0d 3e 34 78 07 bd 05 40 ac 3d 89 e1 da bb
       0.13858692 -0.03307362 0.08410648 -0.006679718
000100 d3 eb d8 bd 79 f2 73 bc 47 dd 70 3e c9 4d ca bd
       -0.10591855 -0.014889353 0.2352191 -0.098781176
000110 b1 32 f6 3d a2 05 ca 3c e0 db a9 3e 67 92 74 3d
       0.12021387 0.024660889 0.33175564 0.059709933
000120 61 eb 26 bd c0 55 74 bd 42 b0 0a 3c c3 b8 5d bc
       -0.04075182 -0.05965209 0.008464875 -0.01353282
000130 25 a3 16 bd 4e 4c ba bd ec cf 93 bc 91 45 05 be
       -0.03677668 -0.09096585 -0.01804348 -0.13014819
000140 31 bc 01 3d 89 8a 0e be a3 32 fc bc 31 60 0e be
       0.031673614 -0.13920034 -0.030785864 -0.13903882
000150 4a 1a 2b 3d 9d 5e 8b 3c 50 95 03 be 0a 51 a5 3d
       0.041773118 0.017012889 -0.12849927 0.080720976
000160 a5 22 73 3e 04 22 a4 bc a2 25 0b bd 09 2e f1 bb
       0.23743685 -0.020035751 -0.033971436 -0.007360224
000170 52 fb 2a bd fb 60 fa bb f8 55 29 3c f8 ed 60 bd
       -0.041743584 -0.0076409555 0.010335438 -0.054914445
000180 80 8c a1 3d 59 05 52 3d 17 c5 cb 3c 84 1c 4b 3d
       0.078881264 0.05127463 0.024874253 0.04958774
000190 d8 84 03 bd 22 fb 07 3c 9d c8 de bc d3 5f 11 bd
       -0.03210911 0.008299621 -0.02719527 -0.035491776
0001a0 8e 18 53 3d 18 c9 cf 3c 60 8a 8a 3d bf 2d 15 3d
       0.05153709 0.025364444 0.06764674 0.03642058
0001b0 44 10 1c bd e3 32 16 3d c8 f7 45 bc 5a 21 24 bd
       -0.03810145 0.036669623 -0.012083001 -0.04007087
0001c0 31 18 13 3d f3 a0 8e 3d 60 65 58 bc 1d 77 82 3d
       0.035911743 0.069642924 -0.013207763 0.06370375
0001d0 cd 75 87 3d 54 3c 31 bd f6 23 67 bc ff c2 66 be
       0.066142656 -0.043270424 -0.014107695 -0.22535323
0001e0 6b 97 d7 3c b0 04 66 be f6 e9 6c 3e f1 d7 20 3e
       0.026317319 -0.22462726 0.23136124 0.15707375
0001f0 e4 9d 76 bd a9 ae 3b 3d 11 60 9d bd cd dc 9f bc
       -0.06020917 0.045820866 -0.07684339 -0.019514466
000200 df 06 be 3d 20 8b 91 3a ff 34 87 bd 74 d0 5c bd
       0.09278654 0.0011104085 -0.06601905 -0.053909734
000210 15 b6 8d bb 43 97 bb bd dd b4 0f 3d 94 e5 a0 bd
       -0.0043246844 -0.0915971 0.035084594 -0.078562886
000220 81 ca d5 bd 85 67 25 3d 20 86 2c bb ff 95 17 bd
       -0.10439015 0.040381927 -0.0026325062 -0.03700828
000230 ea e3 b2 bd 80 6b 7d 3a 90 1b bb bd ed b7 82 bb
       -0.087348774 0.0009667203 -0.091361165 -0.003989211
000240 9b 66 c5 bd e8 a1 0a bd 47 7b 4d 38 cd 75 8d bd
       -0.09638711 -0.033845812 4.899062e-05 -0.06907234
000250 1b 2e d4 bc 88 91 c0 bd 1a f4 d0 bd 26 b3 10 bc
       -0.025900891 -0.09402758 -0.10202809 -0.008831775
000260 36 d5 4f 3d ba de 96 bb 70 42 3c bd 9b c8 ef bd
       0.050740443 -0.004604188 -0.045961797 -0.11708184
000270 19 1f 27 3d cf 8b 43 be 82 87 f9 3d 86 64 44 3d
       0.04080114 -0.19096301 0.12184049 0.04794743
000280 6a a1 c5 bd c5 19 dd 3c 71 12 49 3c f7 77 2e bc
       -0.09649928 0.026989827 0.012272463 -0.010648719
000290 28 94 df bc 40 68 c1 3c 0f 99 9b bc 26 da 33 3d
       -0.027292326 0.02360928 -0.018993882 0.043909214
0002a0 0f 81 59 39 af bc bb 3c 9a a8 10 bd f7 77 e1 bc
       0.00020742811 0.02291712 -0.03531704 -0.027523024
0002b0 25 33 aa 3b af 7c 0c 3c 4a 64 11 bd bf 9d c9 bc
       0.005194085 0.008574649 -0.035496034 -0.024611352
0002c0 e4 df 4c 3d 10 da 03 bc 35 b0 97 bd 01 5d 4a bb
       0.050018206 -0.008047596 -0.07406656 -0.0030878189
0002d0 33 80 bc bd 1f 58 46 3b 46 2d 35 be 96 8d d2 bd
       -0.092041396 0.0030264927 -0.17693052 -0.102809116
0002e0 20 fe 58 be 66 97 2f bd 18 3b f5 3a 50 6c 86 be
       -0.21190691 -0.042868994 0.0018709628 -0.2625451
0002f0 37 2f 92 3d 72 02 15 3c 4b c8 5a 3d 1a 9f 24 3c
       0.07137912 0.009094821 0.05341367 0.010047698
000300 99 2c 41 bc 12 ef 3e bd 2a 49 4d 3d 21 c9 72 3c
       -0.011790418 -0.046614714 0.050118603 0.014818461
000310 2e f5 7c bc de ae 65 3c 97 eb 16 3d c6 0c 8a bd
       -0.015439315 0.014018742 0.03684577 -0.067407176
000320 53 4b c2 bd db 07 01 be a4 da e6 bd cf 02 22 be
       -0.09487023 -0.12600653 -0.11272171 -0.15821384
000330 6e ef 94 bd 06 34 9f bd ea 0c 87 bd d9 ea 8d 3c
       -0.0727223 -0.077735946 -0.0659426 0.017323898
000340 33 7c 20 bc 9c 52 ae 3c 31 60 53 3d b3 38 aa bc
       -0.009795236 0.021279626 0.051605407 -0.02077899
000350 6f e9 a8 bd e2 a2 ce bc c8 59 6e bd 83 31 12 3d
       -0.08247649 -0.025224153 -0.05819109 0.03569175
000360 75 58 41 bd 09 b8 d4 bd 4e e3 06 3d 5a 60 bc bd
       -0.0472035 -0.103866644 0.03293162 -0.09198065
000370 17 fb 0a bd 89 23 54 bd d0 68 c8 bd d4 a7 96 bd
       -0.033930864 -0.0517917 -0.097856164 -0.073562294
000380 08 93 1f bd 2d f0 f2 3c 96 ce 39 3d 75 6c 41 bd
       -0.03895858 0.02965554 0.04536303 -0.047222573
000390 db 9e 3d 3d cd c1 95 bc c6 d1 f4 bc 44 79 b6 bb
       0.046294075 -0.018280888 -0.029885184 -0.005568655
0003a0 6f 32 54 bb df 8d d5 3c fe 5c 4a bd fc ec 4d 3c
       -0.0032378694 0.026068626 -0.04940509 0.0125687085
0003b0 9f 40 2f be 8b 78 13 bd a4 75 19 3b 93 97 f9 3d
       -0.17114495 -0.03600363 0.0023416067 0.121871136
0003c0 79 66 14 3e da 52 26 be c7 79 b2 3c 65 09 d8 bd
       0.14492215 -0.16242543 0.021786584 -0.10548667
0003d0 b5 93 23 3d 88 1b e5 bd e3 f6 d8 bc f0 6e 04 be
       0.039935786 -0.11186892 -0.026484912 -0.12932944
0003e0 88 c8 ab 3d b9 a9 19 3d 1e 1b bb bd 49 d4 48 3c
       0.08387858 0.037515376 -0.091360316 0.012257644
0003f0 36 ed 4b 3d 7a 16 02 bd b4 05 57 3d 7c 0c 1e bd
       0.04978677 -0.031759717 0.052495673 -0.038586125

conv3.bias f4 [32]
000000 f9 a6 b9 bd b3 e8 f8 3d ae d9 80 3e 0c 55 85 3d
       -0.09065051 0.12153759 0.25166076 0.06510362
000010 2e cf 12 be e6 03 5a be 3c 8f 05 3e 0d a4 e3 bd
       -0.14336845 -0.2129055 0.13042921 -0.111152746
000020 70 03 28 be c3 b0 2b 3c 89 84 52 3c 79 8b ff bb
       -0.16407561 0.010479155 0.012848982 -0.007798609
000030 fc 5e 26 bc 4e 73 32 bd 75 68 1c bd 6c f8 1c bd
       -0.010154482 -0.043566994 -0.038185555 -0.03832285
000040 6b bf 10 bc ea d4 55 be e7 0a be 3d db 9b 0c 3d
       -0.0088347 -0.20882002 0.09279423 0.034328323
000050 cf 2f 93 3d 90 f5 c6 3d fb ac d2 bc af 6a 98 bd
       0.07186853 0.09714806 -0.02571725 -0.07442223
000060 68 2d 43 3d 45 ea 06 be b1 c9 34 3e 7b e3 53 be
       0.047650725 -0.13175304 0.17655064 -0.20692246
000070 90 c5 a2 be 00 4f 82 3e e1 55 49 be 96 9e cf 3b
       -0.31791353 0.25450897 -0.19661666 0.0063360436

conv4.weight f4 [32, 32, 3, 3]
000000 48 97 1a bd 52 83 8d 3d 1b 25 9d 3c dc ab 32 3e
       -0.03774193 0.06909813 0.019182732 0.17448372
000010 73 4c c1 bc 6b e7 85 bd 53 87 1e be a1 42 71 bc
       -0.023596024 -0.0653828 -0.1548131 -0.014725358
000020 bd 24 37 bd 4a 36 27 be 29 a3 0c bd 1b bd 43 bd
       -0.04471277 -0.16329303 -0.03433529 -0.047787767
000030 63 a7 55 3c ac 1a 2f be 71 15 dc bc 13 8e 35 be
       0.013040396 -0.17100018 -0.026865693 -0.17729978
000040 70 f0 10 bd 65 04 1b bc f1 da f4 3d 53 cf c4 3d
       -0.03538555 -0.009461497 0.11955822 0.096098565
000050 1a 49 81 bd f7 84 70 3d ee e0 80 bd bd 4b 70 3d
       -0.06312771 0.058720555 -0.06292902 0.05866598
000060 2c 3d 25 3e 6f 1f 53 3d ac d2 15 3e 6c 31 9f ba
       0.16136616 0.05154365 0.14631146 -0.0012145466
000070 0b fd 3f be 25 36 b3 bd d1 27 23 3e 10 bc 88 be
       -0.18748872 -0.087505616 0.15933158 -0.2670598
000080 96 4a 13 be 22 9a a7 be 7f 5b 55 bd 0d db 38 be
       -0.14383921 -0.32734782 -0.05208921 -0.18052311
000090 7e 67 31 3e 92 fe 30 3e f0 40 36 3f 38 17 f1 be
       0.17324635 0.17284611 0.71192837 -0.47088027
0000a0 e6 fd ae 3e 18 96 33 3d 1e e9 13 be 4e e0 f6 3e
       0.34178084 0.043844312 -0.14444396 0.48218006
0000b0 b3 e3 65 be 60 26 b5 be 49 f7 6a be f8 1b 1b 3e
       -0.22450142 -0.3538084 -0.22945894 0.15147388
0000c0 f4 9b 2a be 51 e3 04 bf 24 9d 51 be 76 47 c0 3e
       -0.16661054 -0.5190936 -0.204701 0.3755452
0000d0 93 32 02 bd 89 46 ae be d2 83 72 be ab f8 80 bf
       -0.031786513 -0.3403819 -0.23683098 -1.0075887
0000e0 7e 41 70 be 06 c9 ab be 2e a1 18 be f5 4a 0c be
       -0.23462483 -0.33551806 -0.14905235 -0.13700469
0000f0 45 68 cf be c2 9f 1e bf bd 7e fc be 2c b7 2a be
       -0.4050924 -0.6196252 -0.49315444 -0.16671437
000100 2e 6f 41 3e 2a db 8c 3d 6c d2 96 3e 6f c4 89 bd
       0.18890068 0.0687774 0.29457414 -0.0672692
000110 29 b6 c1 bd 59 4e 8a 3e 15 4b 92 3c d5 0c eb bc
       -0.094585724 0.270129 0.017858068 -0.028692642
000120 1f 86 b0 3d 73 16 a7 3b c2 8d 4c bb 1a 4d 55 bd
       0.086193316 0.0050991117 -0.0031212424 -0.052075483
000130 f2 27 37 3c 57 90 6f ba b6 ac 48 3c 21 13 20 3e
       0.011178957 -0.0009138635 0.012248209 0.15632297
000140 83 71 07 be 5e be 39 be 8b 5f e4 3d 15 56 c8 bb
       -0.13226895 -0.18139026 0.11151036 -0.0061137774
000150 9e 41 20 3e 62 69 30 3d f4 17 28 be 1e 39 d5 3d
       0.15650031 0.04306925 -0.16415387 0.10411285
000160 c2 2a 58 3d 3b f0 51 bd 27 7c e5 bd b0 25 9e ba
       0.052775152 -0.051254492 -0.11205321 -0.0012065675
000170 17 06 81 3e 93 47 02 3f 42 63 41 bd ec 5c 5e bd
       0.2519996 0.50890464 -0.0472138 -0.054287836
000180 9c dd 72 ba 9f 51 47 3d c7 0d 7b bd 79 6d 07 bd
       -0.000926459 0.048661824 -0.061292436 -0.033063386
000190 52 b9 6e bd 6f 4d fe bd 06 ad b5 be bd 14 37 bc
       -0.058282204 -0.12417113 -0.3548357 -0.011174378
0001a0 67 88 b3 bd bb de 48 be 27 4e bc 3e 33 64 36 be
       -0.08766251 -0.19616215 0.36778376 -0.1781166
0001b0 ce 9f d7 bd 40 02 4f bb 34 9c 9d bd 83 1c 5e 3e
       -0.10528527 -0.0031587034 -0.07695809 0.21690564
0001c0 1b 4d 22 bd 45 c5 c5 bc e7 fc 1e bd d2 e0 8f bd
       -0.039624315 -0.024141917 -0.038815405 -0.07025303
0001d0 2f c6 4d bd 42 a9 de bd 40 ad 61 be d6 6b 4d 3c
       -0.05023783 -0.10872127 -0.22038746 0.012537917
0001e0 8b 8d 04 bc 0d 62 8e 3e 80 df 1a be ec bb 8c 3c
       -0.008090387 0.27809182 -0.15124321 0.017179452
0001f0 a1 88 0e be e3 bb 62 be 3a 92 ba be 20 24 43 be
       -0.13919307 -0.22141986 -0.36439687 -0.1905675
000200 b7 0e 3f be 76 e1 46 be ba 84 65 bc fc f0 12 bf
       -0.18657957 -0.19421944 -0.014008695 -0.5739896
000210 52 b9 54 bf a3 40 45 bf 5e e4 c2 be 79 5a 67 bd
       -0.83095276 -0.7705175 -0.38064855 -0.056482766
000220 b6 20 44 3e 0f af 19 3d 20 4a 04 3d b3 a5 fc bc
       0.19153103 0.037520465 0.032297254 -0.03084073
000230 ab 8b 26 3c 1a c1 46 3d d5 ed c3 bd af 3a a4 bc
       0.010165135 0.048524 -0.09566847 -0.020047514
000240 68 d1 82 bd cb d9 27 bc 58 1e 23 bd 04 c1 c7 3c
       -0.06387597 -0.010244797 -0.03982386 0.02438403
000250 e5 4a a9 bd 38 1a cb 3c 02 9e a3 bd f8 40 27 3c
       -0.08266238 0.024792776 -0.07989122 0.010208361
000260 a4 0d 4f bd b0 b6 79 3d 4c 70 2a 3e ba 1c 82 bd
       -0.050550118 0.06096524 0.166444 -0.063531354
000270 e0 e7 1e 3d 49 90 85 bd 6b a2 f3 bd d2 2f c0 bd
       0.038795352 -0.06521661 -0.11896213 -0.09384121
000280 de c2 36 3e 6c 08 16 be 32 9e 96 bd 06 0d 1d be
       0.17847773 -0.1465165 -0.07354392 -0.15337
000290 80 29 cb bc bb 8e 72 be 1a 1a 94 bd 1a 0c a9 3b
       -0.024800062 -0.2368726 -0.07231541 0.0051589133
0002a0 78 f0 a0 3e f8 b2 ee bd 8e b3 26 bd c6 9c 1d bd
       0.31433463 -0.11655229 -0.04069858 -0.03847959
0002b0 47 f0 88 be e3 2f 1e 3d cc 5c 80 be 6a d5 52 3e
       -0.26745817 0.038619887 -0.25070798 0.20589224
0002c0 3c f6 fe bd fa 3c 67 be 1d ad 78 bc f2 98 2e be
       -0.12449309 -0.22581854 -0.015177992 -0.17050532
0002d0 b6 4c fa bd a6 8a b9 bd 25 4b 6e 3d b6 37 14 3e
       -0.12221663 -0.09059648 0.058177132 0.14474377
0002e0 22 3c 60 3d 28 aa 1d be 55 b2 1c 3e b7 6a 04 bd
       0.054744847 -0.1539694 0.15302403 -0.032328334
0002f0 ef ee 5c bd c9 22 05 3e 04 55 56 bd 35 48 05 3e
       -0.053938802 0.1300155 -0.05232717 0.13015826
000300 61 42 87 3d 02 95 1e be 6d d8 be 3d fa 90 86 3d
       0.06604458 -0.1548653 0.09318624 0.06570621
000310 92 9d 0e 3e 7b 7a 08 bd a4 2d 05 bd fd c8 b7 3c
       0.13927296 -0.03331993 -0.03251423 0.022434706
000320 15 7c f3 3d 85 57 95 bd f1 b8 d4 bd dd 7b 83 bd
       0.11888901 -0.07292084 -0.10386837 -0.064201094
000330 b5 5b 20 ba c2 62 17 3e 6d 52 04 bc 9f 26 a0 be
       -0.0006117181 0.14783767 -0.008076292 -0.31279466
000340 42 1b 8e be 3e c9 d4 bd 42 e6 0d 3f a0 6e 59 bd
       -0.2775517 -0.103899464 0.5542947 -0.053084016
000350 b0 2c 01 be 37 ef 2d be 54 ee 5c 3b fe b8 66 be
       -0.12614703 -0.16985784 0.003371139 -0.22531506
000360 e5 d4 28 3e 69 60 6e be 56 cb 32 3d a9 63 8d 3c
       0.16487463 -0.23278965 0.043650948 0.017259436
000370 69 6b 0d be 15 00 6b 3c 5e 1e c6 3d bf 1f b1 3e
       -0.13810505 0.014343281 0.09673761 0.34594533
000380 8b f4 0e be ac ec dd 3c 06 c1 d2 3d 9c 09 87 3c
       -0.13960473 0.027090393 0.102907225 0.016484074
000390 aa ff 23 bd c0 84 ce bd c7 28 b1 bd d4 6c 43 bd
       -0.040038742 -0.10083914 -0.08650356 -0.04771121
0003a0 73 29 2a be 0b ec 3c be d1 c9 30 be f3 bc 0f 3c
       -0.16617374 -0.18449418 -0.17264487 0.008773076
0003b0 a6 5d af 3e 3b 0d 02 3f aa de da bd 7f 0e 8c bd
       0.34251136 0.5080144 -0.10687001 -0.068387024
0003c0 1f 15 8b 3d 04 d3 85 3d 96 41 aa bc b8 8c d3 be
       0.06791138 0.06534389 -0.020783227 -0.41318297
0003d0 1d 4d ac be 0c 54 68 bd d1 fa 86 be 43 22 cb 3e
       -0.33652583 -0.05672078 -0.26363233 0.39674577
0003e0 7d 89 fe bd 47 4f 13 bf 6a a9 d3 be 6e 4d 18 bf
       -0.124285676 -0.5754284 -0.4134019 -0.5949315
0003f0 f4 a3 99 be 77 cc 79 3e 2b 96 cf bc e2 93 34 be
       -0.300079 0.24394403 -0.02534016 -0.17634538

conv4.bias f4 [32]
000000 ed fd a1 bd 7d b5 c6 bd 8d f1 3b bd ec bc 47 3d
       -0.079097606 -0.09702585 -0.045884658 0.048764154
000010 0f f5 8e 3d 7e 5f 67 bd 8c 3c b5 bd 59 d9 13 3e
       0.06980335 -0.056487553 -0.08849439 0.1443838
000020 0f 23 38 3d 27 c9 43 3c da f4 d5 3c a1 c2 72 bd
       0.04495531 0.011949814 0.02611773 -0.059267644
000030 16 29 96 bd 15 04 96 bc cf bd 73 3e 09 10 9f 3d
       -0.07332055 -0.018312493 0.23802875 0.0776673
000040 6b 1d fa bc 2e 99 6f bd 75 62 06 3d e1 c3 9e bd
       -0.030531606 -0.058495693 0.03280874 -0.07752205
000050 48 46 ca bc 84 6d f6 3d 9e 8f c2 bd 41 d9 be bd
       -0.024691716 0.12032607 -0.09500049 -0.09318782
000060 0b 67 88 bd dc 43 e2 3a 21 f5 66 bc de 77 f2 3c
       -0.06660279 0.0017262655 -0.014096529 0.029598173
000070 0b 74 ad bd ca 4b 05 be 45 95 40 be 4e 36 ff bc
       -0.08469399 -0.13017192 -0.18806942 -0.031153824

conv5.weight f4 [10, 32, 3, 3]
000000 bf 44 c2 3d a7 98 a7 3c c2 7b 1c 3c 18 e1 fe 3c
       0.094857685 0.020458532 0.009550991 0.031113192
000010 20 ab 62 3d 66 11 1e 3d 65 78 90 3d 58 44 cb 3d
       0.05533898 0.03859081 0.070542134 0.09925145
000020 86 b1 87 3d 4f 1f 38 3e f2 a2 3d 3e 75 82 1b 3e
       0.06625657 0.17980693 0.1851919 0.15186484
000030 b8 74 57 3e 8a 4f 42 3e 5e 57 63 3e 44 42 7b 3e
       0.21040618 0.18975654 0.22201297 0.24536997
000040 f4 33 9a 3e c1 07 7e 3e f7 71 fd 3d ad 32 aa 3d
       0.30117762 0.24807645 0.12375253 0.08310447
000050 b6 35 7a 3d de ce 1a 3e 80 14 1f 3e 4e 79 8e 3d
       0.06108638 0.15117976 0.15535164 0.06956731
000060 ee 54 0a 3e 64 1b 37 3e c1 3b 2f 3e 3b 7a c2 bd
       0.1350896 0.17881542 0.17112638 -0.0949597
000070 6e e0 e1 bd 77 cb 05 be b4 16 33 bc 9a 0a bf bd
       -0.11029135 -0.13065897 -0.010930706 -0.09328194
000080 52 24 01 be 2c 0c fc bd f0 9c ca bd af 75 04 be
       -0.12611511 -0.12307009 -0.09893215 -0.12935518
000090 0b 7b 3d bd ae 4b 26 bc 75 3a b3 bd a5 95 ce 3d
       -0.04625992 -0.010149879 -0.08751384 0.10087136
0000a0 a0 db f7 3d 18 7d 02 3d eb 2d f8 3d 24 ed c5 3d
       0.12102437 0.03185758 0.12118133 0.096643716
0000b0 51 05 d8 3d 57 7e eb b8 b3 16 11 bd 73 f6 ff bb
       0.10547889 -0.00011229206 -0.03542204 -0.0078113615
0000c0 70 8a d4 bc 2b 7c 35 3d 7f a2 b1 3c e8 69 3d 3d
       -0.025944918 0.04430787 0.02168393 0.04624358
0000d0 9c 0b 8f bc fb 0c 1f 3d a7 11 43 be a1 ba 04 be
       -0.01746159 0.03883074 -0.19049703 -0.12961818
0000e0 55 86 ca bd 3f c4 4f be d8 65 09 be 3f 40 58 be
       -0.09888903 -0.20289706 -0.13417757 -0.21118258
0000f0 a0 df 5b be b7 c6 4b be ee e5 33 be 68 85 04 be
       -0.21472025 -0.19900022 -0.1756818 -0.12941515
000100 14 58 fc bd 93 f9 bf bd 2d 3a e9 bd 7d 87 af bd
       -0.12321487 -0.093737744 -0.11388049 -0.08570764
000110 ff 3a f7 bd 76 e2 ea bd 1b 7f 0c bd 16 3b 89 bd
       -0.120717995 -0.11468975 -0.034300905 -0.06700723
000120 30 8c 8a 3b 9f f8 e2 bb 9e 08 3b bc 46 90 01 be
       0.0042281374 -0.0069266106 -0.011415629 -0.12652692
000130 cf 4a c5 3b 8e d4 48 3d 49 f0 a1 bd 3d 9b 69 bd
       0.006020881 0.049030833 -0.07907159 -0.057032812
000140 62 c3 9c 3d 2e 10 36 be b1 4e 26 be 8d 06 c9 bd
       0.07654454 -0.1777961 -0.16240956 -0.098157026
000150 d7 62 e0 bc 0a 84 4e bd cf 37 79 bd 1b dc f7 bd
       -0.02739088 -0.05041889 -0.06084424 -0.12102529
000160 d2 4f 63 ba 4e 07 0a 3d 18 78 ae bc 1c 28 86 bd
       -0.0008671257 0.033698373 -0.0212975 -0.06550619
000170 a8 37 e6 bc 28 d0 08 bd ec f6 1d 3c 8c 16 ef bc
       -0.02810271 -0.03340164 0.00964139 -0.029185556
000180 bd 52 16 bd bb cc 5d bc 26 54 62 bd 8c 91 96 bc
       -0.0367 -0.013537581 -0.05525603 -0.018379949
000190 2b e8 ea bc 04 99 62 bc 21 fd a3 bd 18 24 80 bd
       -0.02867516 -0.013830427 -0.08007265 -0.06256884
0001a0 bf 68 b2 bd 6c d6 ed bb 21 e4 64 3d 04 63 54 bc
       -0.08711385 -0.007258227 0.055881623 -0.01296306
0001b0 f9 3e 45 3f 1c 21 4a 3f fc 5e 15 3f a3 61 3b 3f
       0.77049214 0.7895677 0.5834806 0.73195857
0001c0 3e 62 33 3f 4c 20 00 3f 4e bb d1 3e f0 c5 eb 3e
       0.7007178 0.5004928 0.40963215 0.46049452
0001d0 9e 01 95 3e 15 39 78 3d a5 1f 17 be 92 55 2e be
       0.29102796 0.060601313 -0.14758165 -0.1702483
0001e0 a2 54 df bd d9 36 9b be dc 58 83 be 39 a1 e3 be
       -0.10904814 -0.30315283 -0.25653732 -0.4445894
0001f0 c5 9e 18 bf 84 90 f3 be 07 b5 69 be 6c c9 5f be
       -0.59617263 -0.47571194 -0.22822963 -0.2185418
000200 e9 68 63 be 08 0c 0f be 61 f3 d3 bd 90 be 19 be
       -0.22207989 -0.13969433 -0.10349155 -0.150141
000210 d0 cc 38 be 07 55 1c be 5c ee c1 bd ab 33 a3 bd
       -0.1804688 -0.1526681 -0.094692916 -0.07968839
000220 7b 50 e1 bd d3 bc f8 bd e7 4c 61 be 30 2c 15 be
       -0.110016786 -0.1214539 -0.22001992 -0.14567637
000230 a0 86 39 be ec 9d 1c be 33 cc 58 be 88 d5 2c be
       -0.18117762 -0.15294617 -0.21171646 -0.1687833
000240 f9 5a 05 be 1b ae bf bd c6 21 fc bd d6 4b f9 bd
       -0.13022985 -0.0935938 -0.12311129 -0.12172668
000250 fd 55 b6 bd e6 10 a0 bd c2 c0 f4 bd 56 b2 1e be
       -0.0890312 -0.07815723 -0.11950828 -0.15497717
000260 6a 32 a7 bd 64 5d e8 bd 38 7d bd bc d8 ca 42 3c
       -0.081639126 -0.11345938 -0.023130998 0.011889182
000270 e8 6e 06 be 06 54 02 bd 58 36 9b bc 25 bc cb bd
       -0.13128245 -0.031818412 -0.018946812 -0.09947995
000280 cc 2c ac bd 98 09 9e bd 3f 03 dc bd ee f7 09 bd
       -0.08406982 -0.077166736 -0.10742807 -0.03368371
000290 ff 90 90 bd 42 ff 9a bc 91 a3 27 bd 77 6a a8 3c
       -0.07058906 -0.018920545 -0.040927473 0.020558579
0002a0 3a f8 13 bd 54 a5 52 bc 02 38 77 3b 57 a8 67 bd
       -0.0361254 -0.0128568 0.0037722592 -0.056557026
0002b0 53 d6 d3 3a 90 54 53 bd f2 05 72 bd 19 14 bd bd
       0.0016161896 -0.051594317 -0.0590877 -0.09232349
0002c0 e6 ad 9f bd eb 1e 98 bc 3d 81 24 bd 32 e4 9f bd
       -0.0779684 -0.01856943 -0.040162314 -0.07807197
0002d0 81 08 b5 bc 94 4a 1e bd a5 7c bb bd 2f 10 44 3d
       -0.022098782 -0.038645342 -0.091546334 0.047866996
0002e0 fa 61 b2 3d d3 3a 56 bd 2e 83 a8 3d 65 2b be 3d
       0.08710094 -0.052302193 0.082281455 0.092856206
0002f0 f4 44 ae 3d bc d0 1e be 13 dd 27 be fa 66 7c be
       0.085092455 -0.15509313 -0.16392927 -0.24648657
000300 75 4b ba bd 0f b9 1b be 37 46 51 be ec 76 1a bd
       -0.090964235 -0.15207313 -0.20436941 -0.03771107
000310 bd 69 b4 bd 02 15 e0 bd d3 f7 46 bd b2 4f 85 bd
       -0.088092305 -0.10941507 -0.048576187 -0.06509341
000320 53 cd 7a bc 3f a0 8c bd d1 a8 d8 bc ef ab c1 bc
       -0.015307742 -0.06866502 -0.026447685 -0.023641555
000330 d2 b5 be bb 7c cb dd 3b cf 71 f9 bc d6 f8 b7 3e
       -0.0058200145 0.006768642 -0.030449776 0.35932034
000340 3b 53 be 3e c5 dc 85 3e 15 1b ad 3e 73 ee 9c 3e
       0.37172875 0.26144996 0.33809724 0.30650672
000350 38 a7 41 3e 5b 23 92 3e 7e a0 28 3e 17 93 0e 3e
       0.18911445 0.285426 0.16467473 0.13923298
000360 3d 48 2d 3e 9c 7e 83 3e 93 22 49 3e 40 60 b7 3d
       0.16922088 0.25682533 0.19642095 0.08953905
000370 39 84 01 3e fe b2 1a 3e c0 a4 81 bd be 3e 85 3d
       0.12648095 0.15107343 -0.06330252 0.06506108
000380 a8 7a d4 3d 56 c6 04 be d9 9a 1d be 84 3e 34 be
       0.10374957 -0.12966284 -0.15391101 -0.17601973
000390 e7 5a 71 be 8d b2 28 be c4 92 dd bd 54 71 45 bd
       -0.23569833 -0.16474362 -0.10819009 -0.04820378
0003a0 4c 6b 27 3d e2 bf a4 bd 99 5f 5c 3d ad 9a 05 bd
       0.04087381 -0.08044411 0.053802107 -0.032618213
0003b0 d0 ee 8b bc 04 29 67 3d c4 1f 5d 3d 90 dd 0e 3d
       -0.017081648 0.0564356 0.053985372 0.034879267
0003c0 2f 76 08 3e 12 79 0f 3e a0 cb 23 3d c6 94 06 3d
       0.13326333 0.14011028 0.039989114 0.032856725
0003d0 cc 42 c7 3a 03 e8 b1 bc 0a fe 98 3b ef 72 ec 3c
       0.0015202402 -0.021717077 0.0046689557 0.028863398
0003e0 8e 22 92 bd 42 c0 4a 3c 49 87 33 bd 51 37 36 3c
       -0.07135497 0.012374939 -0.04383019 0.011121587
0003f0 7c 93 9c 3e d3 a1 a2 3e 1f e3 70 3e 8f 27 87 3e
       0.30581272 0.31764087 0.2352414 0.26397368

conv5.bias f4 [10]
000000 ed 42 48 be 11 cd 54 be 70 7d 1a bc 81 67 26 bc
       -0.1955678 -0.20781352 -0.009429321 -0.010156513
000010 20 5e a3 bc 99 42 33 3d 60 1f 37 be b8 37 14 3e
       -0.019942343 0.043764684 -0.17883062 0.1447438
000020 ed 70 8f 3d 8e bd c7 3d
       0.07003961 0.097529516
