comp5214hw1/CNN_old.pth (torch, 243599 bytes, 10 tensors)

conv1.weight f4 [6, 1, 3, 3]
000000 4a 0f 9e 3e 6d 03 15 3f 24 21 8f 3f c4 c8 a1 bf
       0.3087104 0.5820835 1.1181989 -1.2639394
000010 b5 f4 b3 bd 51 e6 41 3f b6 59 8e bf 69 fb 8f bf
       -0.087869085 0.7574206 -1.1121128 -1.1248599
000020 44 df a8 bf 34 e1 86 be 4b 56 3b bf 39 ce 84 bf
       -1.3193135 -0.2634369 -0.7317855 -1.0375434
000030 f3 2f 9c bf fb 44 0e bf 6d a5 87 3e ed 6e a5 be
       -1.2202133 -0.55574006 0.26493397 -0.32311192
000040 3a 77 0a 3f ac b7 95 3f 92 48 f0 3d 74 d5 a6 bf
       0.54088175 1.1696677 0.11732592 -1.3033891
000050 d5 fd 76 bf bd 9f 2e 3f f8 02 a7 3d fc fe d4 be
       -0.96481067 0.6821249 0.08154863 -0.41600788
000060 24 01 c9 3e fc 32 6d 3f 14 3e 2a 3f 97 8e b8 3e
       0.39258683 0.9265592 0.66500974 0.36046287
000070 6d 54 4c 3f 43 04 f6 be 43 63 d5 bd df 41 95 3f
       0.79816324 -0.48050126 -0.10419323 1.1660727
000080 ac fa 76 be ed 55 cb be 9c 6c 13 3f d8 3e 83 3f
       -0.24119061 -0.39713994 0.575876 1.0253553
000090 fd 14 7f bf 02 9b 76 bd cd 73 d9 3e a7 98 67 be
       -0.996414 -0.06020642 0.4247116 -0.22616826
0000a0 73 8b ed 3e 02 38 28 3f d6 e2 15 3e 78 4b 0f 3e
       0.46395454 0.6571046 0.14637312 0.13993633
0000b0 f5 e6 0c 3e fb 4c 2d 3f 94 25 ec bc f2 93 80 bf
       0.13759978 0.6769559 -0.028826512 -1.0045149
0000c0 cb 88 db 3e ff 25 13 3f 2c 0a 8e bf da 0f 5c 3f
       0.42877802 0.5747985 -1.1096854 0.8596169
0000d0 c0 9b 1b be 2c 80 df bf
       -0.15196133 -1.746099

conv1.bias f4 [6]
000000 1f fc 0c bc 54 44 01 bc a5 ff 59 be aa c1 bb bf
       -0.008605032 -0.007889826 -0.21288927 -1.4668477
000010 c9 89 1f 3d 07 c2 1d bd
       0.03894976 -0.038515117

conv2.weight f4 [16, 6, 3, 3]
000000 f5 92 1c 3d 55 3d 5b 3d d6 bb cb bd ed 86 af 3d
       0.038226087 0.053525288 -0.09947936 0.08570657
000010 71 ca 62 bb 08 a1 22 bc 0e 4e b6 3d c8 42 83 be
       -0.0034605528 -0.009926088 0.089016065 -0.25636888
000020 7a 76 5c bd de 08 ce 3d 9d 44 36 be c6 80 a9 be
       -0.053823926 0.10060285 -0.17799611 -0.3310606
000030 65 78 83 bd 80 26 cd be 45 a7 0b bf 11 d8 0a 3e
       -0.06419448 -0.40068436 -0.5455211 0.13558985
000040 83 a3 c4 3e 3d 79 d0 be 9d 2e 0e 3f 93 06 92 be
       0.38406 -0.40717497 0.55539876 -0.2852064
000050 c1 d3 f7 be 9f dd ad 3e d7 07 61 3e 06 39 e7 bd
       -0.48403743 0.33958146 0.21975647 -0.11290173
000060 d8 2a a4 be 54 e4 09 3e 7b c5 76 3e 16 47 dc be
       -0.32063937 0.13466007 0.2409877 -0.43022984
000070 08 21 34 bf f1 9c 25 bf 8f b8 2f bc 95 36 64 3d
       -0.703629 -0.646926 -0.010725155 0.055716116
000080 82 25 f6 be e5 d6 82 3e 17 be fc 3e bd 8a 50 3d
       -0.4807549 0.25554577 0.49363777 0.05091356
000090 c2 5e b0 be 29 48 55 bf e5 39 26 bf cc 51 6b be
       -0.34447294 -0.8331323 -0.6493209 -0.22980422
0000a0 6f ad 8f be d9 91 d4 be 26 e6 39 3e b8 15 82 3e
       -0.28062007 -0.41517523 0.18154201 0.25407195
0000b0 bb 52 24 bf f6 b4 a1 be ca c4 e2 be 6a bd 1a bf
       -0.64188737 -0.31583375 -0.44290763 -0.6044527
0000c0 7f 29 05 be 6a 78 42 bc 6f 02 b8 bd 8d 7c a5 3e
       -0.13004111 -0.011869529 -0.08984839 0.32321587
0000d0 47 62 10 3f 98 96 4c 3f 17 bd 38 3e ae 7e 8a be
       0.5639996 0.7991729 0.18040882 -0.27049774
0000e0 75 cf 7e be 9d ea 6f 3e 40 d9 b0 be 7f cb 28 bf
       -0.24883826 0.23429342 -0.3454075 -0.6593551
0000f0 1e 64 b4 be b0 5c d5 be f1 6c 2b bf 5b ef 0f bf
       -0.35232633 -0.41672277 -0.66963106 -0.562246
000100 a6 2c 3e be 49 6a 00 3f ae ad 9c be 49 5f 35 3e
       -0.1857172 0.5016218 -0.30601257 0.1771213
000110 80 9e aa 3e c9 28 65 be 3f fa 1b 3f d9 6c e3 3e
       0.3332405 -0.2237884 0.6092872 0.44418982
000120 9e 23 c7 be 29 92 8a be 95 6d 37 3b 8b b8 17 be
       -0.3889436 -0.27064636 0.00279889 -0.14816491
000130 de 1e 32 be e7 c8 48 3e be 87 39 bf 30 bd 11 bd
       -0.17394587 0.19607888 -0.7247275 -0.035580814
000140 c7 c9 84 be 80 52 34 3f cd 9b 0d be 15 84 05 bf
       -0.25935194 0.70438385 -0.13828965 -0.52154666
000150 45 fd 2b 3d 43 4d ca be 2b d6 22 be 73 f3 1a bf
       0.041989584 -0.3951207 -0.15902011 -0.60527724
000160 bf cd 9c bd 7c 18 89 be 3f 63 00 be 30 11 0e bf
       -0.076564305 -0.26776493 -0.1253786 -0.55494976
000170 c8 5d 09 bf 65 22 a0 be 6b 9d e5 be c2 88 28 3f
       -0.53658724 -0.3127624 -0.44846663 0.65833676
000180 cd e2 28 bf 93 e0 66 3c c0 e2 ed 3e e4 f7 ae bd
       -0.6597107 0.014091629 0.4646206 -0.08543375
000190 26 4e a2 3e bc 86 24 be 3f 6b 44 bc f0 01 7f 3d
       0.31700248 -0.16067022 -0.01198846 0.062257707
0001a0 f2 12 6e be 23 20 a8 3e 16 f0 de bc ca e8 6e 3e
       -0.23249415 0.32837018 -0.027214091 0.2333099
0001b0 ca 5c 38 3c 73 d1 80 be 8a 75 bc be 93 a7 9e be
       0.011252591 -0.25159797 -0.36808425 -0.30987224
0001c0 fc df be be 28 85 b4 be 80 af 74 bf 80 fa c9 be
       -0.37280262 -0.3525784 -0.9558029 -0.3944893
0001d0 3e f6 10 bf 9e b0 0d bc 3f 7d cb be db b3 cd 3e
       -0.56625736 -0.008648066 -0.39743993 0.4017628
0001e0 12 51 05 3d 8c 1a 69 be a5 7e 16 be 61 9d 52 bc
       0.032548018 -0.22764033 -0.14696749 -0.012854905
0001f0 ab 03 5e 3d 83 d7 30 3e be 76 37 3f 20 84 c2 3b
       0.054202717 0.17269711 0.7166556 0.0059361607
000200 42 3f f3 bd 9d 07 7c 3e fe b5 19 3d 6d 6d fe be
       -0.118773 0.24612279 0.037527077 -0.4969286
000210 02 bc 6b be 47 36 84 be 35 08 9c b9 5f 6c 3e 3d
       -0.23020938 -0.2582266 -0.00029760753 0.04649007
000220 33 7a 1f bf a8 0a da 3d 0d 05 30 3e 97 1e 87 be
       -0.62295836 0.10646564 0.17189427 -0.26390526
000230 0c 3a 73 3e e4 24 2c bd 4d f1 1b be 4a 23 a7 3e
       0.23752612 -0.04202737 -0.15228768 0.3264411
000240 f1 55 16 bf c5 e7 70 bf a1 f1 6e 3e ec da 8a 3e
       -0.58724886 -0.9410365 0.23334362 0.2712015
000250 1a 07 07 bf fd 94 0b 3f c7 5c c9 3e 25 c6 cc be
       -0.5274521 0.54524213 0.39328596 -0.39994922
000260 96 3f 33 3f ba dc d9 bd d3 8c 8b be c9 4a 14 bf
       0.700189 -0.106378034 -0.27255878 -0.57926613
000270 db 85 93 3e 2f 3d e2 3c a0 95 84 bd 2e b5 6a 3f
       0.2881306 0.027617065 -0.06473851 0.9168271
000280 82 f8 6a 3d c3 20 ba be fe 5a 0e bb dd ec f6 3d
       0.0573659 -0.3635312 -0.0021721716 0.12056897
000290 c5 9f 7f bd b1 28 fe be 06 40 00 bf df 20 4d be
       -0.062408227 -0.4964042 -0.5009769 -0.2003207
0002a0 8c 77 ee be 49 52 52 bd e0 70 26 3f 50 9b 9a 3b
       -0.46575582 -0.051348004 0.65015984 0.0047182217
0002b0 98 be 92 3a 31 be c1 be 28 72 87 3e d5 8c 8a 3e
       0.0011195717 -0.37840417 0.26454282 0.2706057
0002c0 af 19 b7 bd d3 93 f2 3e e9 fd 2d 3f e6 d5 9e 3e
       -0.08940446 0.47378406 0.6796556 0.31022567
0002d0 64 4d 33 be 46 20 85 bd 54 4e e1 bd 89 6e 1f bc
       -0.17509991 -0.06500296 -0.11001268 -0.0097309435
0002e0 1a 0b 51 3e 1a 73 ea 3e 92 e1 8e 3e 62 81 36 3e
       0.20414391 0.4579094 0.27906471 0.17822793
0002f0 e6 fd 07 3e d9 34 73 be 8c d8 9f be 71 9e 7d bf
       0.13280448 -0.23750629 -0.312199 -0.9906989
000300 41 78 6e 3c 1e 72 8e 3b e3 6b b3 bc 0b e4 1b bd
       0.014555038 0.0043471 -0.02190203 -0.038059276
000310 a2 04 d9 be e4 49 d2 be 5c f5 a5 bd 7b 16 7e be
       -0.42386347 -0.41072 -0.08103439 -0.24813263
000320 03 7e 42 bf 0e 49 cc 3e 75 e5 a3 3e 20 ff d7 bd
       -0.7597353 0.39899486 0.32011 -0.10546708
000330 1d 58 cc 3e 71 7d b0 3e ac 4b db bd 96 d9 48 3e
       0.39910975 0.34470704 -0.10707793 0.19614252
000340 dc ef 49 3e d0 7b ab bd 62 7b bf be d0 c9 57 bf
       0.19720405 -0.08373225 -0.3739882 -0.84292316
000350 d3 d7 32 bf d0 ee ac bc 71 1d fd be 3a 55 42 bf
       -0.6986057 -0.021109968 -0.49436525 -0.75911295
000360 93 3b ea 3d d2 90 cc bd 06 ab 81 be 5b ce e8 be
       0.11437144 -0.0998856 -0.25325793 -0.45469937
000370 4c c4 6d be 36 d4 4a be f6 df 2c bf f0 f1 14 be
       -0.23219413 -0.19807515 -0.6752924 -0.14545417
000380 8a 9e 52 be 51 89 83 3e d6 d0 8c 3e 3e e6 a4 be
       -0.2056829 0.25690702 0.2750308 -0.3220691
000390 41 86 0a 3f 31 72 b5 3e f5 32 89 be 54 9c 06 3f
       0.54111105 0.35438684 -0.2679669 0.5258229
0003a0 8f 62 a4 bc 2d f2 19 bf 85 e1 50 3d 99 da 4d 3e
       -0.020066528 -0.60135156 0.050996322 0.2010292
0003b0 d9 1b c8 be c2 bb 2a 3e e0 8a 3f be 79 7c 2c bf
       -0.39083746 0.16673186 -0.1870532 -0.6737743
0003c0 74 4d ac bd e1 9f 60 be 6c 28 40 be 98 8e cb bc
       -0.084132105 -0.21935989 -0.1876542 -0.024848267
0003d0 ac 62 c3 3d 44 70 72 3e 8b 68 d0 3d de 6e 18 be
       0.095403045 0.23675638 0.1017619 -0.14886042
0003e0 56 a7 ae be 11 93 c2 be 62 a8 dd be 74 ed 0e bf
       -0.34112042 -0.38002828 -0.43292528 -0.55831075
0003f0 f6 84 90 be f5 c5 0c 3e 6e 63 27 3e c5 4d e5 3e
       -0.2822644 0.1374739 0.16346523 0.44785896

conv2.bias f4 [16]
000000 22 45 68 3c f6 92 1a bd b6 1b 00 bf 4e 6e 04 be
       0.014176639 -0.03773781 -0.50042284 -0.12932703
000010 a1 30 8c bd a7 07 af ba 1e d5 9b bf be 4c 7a be
       -0.06845213 -0.0013353721 -1.2174413 -0.24443337
000020 07 8c bc 3c b0 0d 1a bd c5 66 37 3e e8 3f 24 be
       0.023015989 -0.03761071 0.17910297 -0.16040003
000030 ad 45 27 bf bd 9a 87 3b 32 5f dc bf 47 27 1d bf
       -0.6534069 0.0041383193 -1.7216551 -0.6138806

fc1.weight f4 [120, 400]
000000 23 6e c3 bc 31 a8 f5 bc 27 e4 87 bd b4 72 11 bd
       -0.023856228 -0.029987426 -0.066353135 -0.03550978
000010 ed 99 c5 3b 07 64 29 3d 84 0d 6b bb e2 d6 af bd
       0.0060303123 0.04135516 -0.003586621 -0.085859075
000020 67 62 8c be a0 7f 92 3c a1 c9 4e 3e 66 07 69 3e
       -0.27418825 0.017883122 0.20194103 0.22756729
000030 8a b2 0d 3e 96 f0 2c 3e b6 a2 04 3f 3a 1e c4 bb
       0.13837638 0.16888651 0.5181078 -0.0059850486
000040 73 b3 a5 3e e9 74 d3 3d 97 22 c5 bd 42 2c 17 bd
       0.3236347 0.10325033 -0.09625738 -0.036907442
000050 30 94 8c bc cb 5f d2 3d 93 d2 32 3e 56 f7 04 be
       -0.017160505 0.10272177 0.1746314 -0.12984976
000060 cc 7d 86 be 98 d0 73 bc f6 ae a4 bd 6b 80 0d be
       -0.2626785 -0.014881276 -0.08041184 -0.13818519
000070 cd 0a 01 be 2b 25 a4 bd 01 bd 04 bc 3a 05 3b be
       -0.12601776 -0.08014902 -0.008101703 -0.18263713
000080 ad 81 c2 bc 0e 94 99 bd 4f e5 0f be 2e fc bf bd
       -0.023743475 -0.07498942 -0.14052318 -0.09374271
000090 eb b7 de bd 7e 90 69 bd a0 1d 01 be 6d 41 92 be
       -0.10874923 -0.057022564 -0.12608957 -0.2856554
0000a0 b6 57 2c 3e e9 72 4b be 2f 43 51 bd 4d ac 6e bd
       0.16830334 -0.19868053 -0.051089462 -0.058269788
0000b0 70 8c 88 3c 12 a0 61 3d c4 a8 6d be b4 bd ac bd
       0.016668528 0.055084296 -0.2320891 -0.084346205
0000c0 99 6e 84 3d c7 9a 07 3e da 8e 0c bc 3c 2a 00 be
       0.06466407 0.13242637 -0.00857898 -0.12516111
0000d0 0a 23 37 3d 74 35 e3 3d 15 e3 66 3e 0b e7 09 3c
       0.04471115 0.1109418 0.22547562 0.008416901
0000e0 22 7f 11 be 76 86 3b bd fd f1 03 3e 9f 95 b2 3d
       -0.14208654 -0.04578253 0.1288528 0.08719944
0000f0 65 ba 57 bd 28 54 83 bd 17 25 ef 3c 80 52 d2 bd
       -0.052667994 -0.06412536 0.02919249 -0.10269642
000100 5d 90 45 bc 8e 12 2e bd cf fb e8 3c c5 70 c2 3d
       -0.012058345 -0.042498164 0.028440384 0.09494165
000110 ce b3 75 bc d9 ce 83 3e dd f7 2d 3c 45 8f 45 bc
       -0.014996482 0.2574375 0.010618177 -0.012058084
000120 63 87 46 3d 78 03 0b bd 26 87 5d be b8 50 40 3b
       0.04846896 -0.033938855 -0.21633586 0.0029344987
000130 e1 3c e2 3d 38 f3 81 3e 1d db 03 3e 9e e9 32 3d
       0.11046768 0.25380874 0.12876554 0.043679826
000140 31 8d 2a bd 4d cb e1 bd 43 87 91 3d c9 fd 4b 3e
       -0.041638557 -0.11025105 0.07105877 0.1992103
000150 b4 7a 08 3e 65 2e 0d bd dd 91 4a be 28 2d 05 be
       0.13328058 -0.034468073 -0.19782205 -0.13005507
000160 e6 69 92 3d b6 67 ad bb fc df 22 3b b1 83 7b bd
       0.07149105 -0.0052919043 0.0024852743 -0.061404888
000170 fd f3 2d be ed d2 5f 3d 77 85 d6 bc 6b 03 24 3c
       -0.16987605 0.054644514 -0.026186688 0.0100105805
000180 13 79 86 bd 29 a9 f0 3d 92 b0 64 3e de 9a 7d 3d
       -0.06566062 0.11751015 0.22332981 0.06191527
000190 50 b4 35 bd e8 a4 0d bd ec c7 3f bc ac a6 a0 3d
       -0.044361413 -0.034581095 -0.01170538 0.0784429
0001a0 6b ef da 3d 01 08 8a 3c d8 10 c0 bd 13 9d 88 be
       0.106901966 0.01684952 -0.09378213 -0.26682338
0001b0 35 f8 bb bd 86 12 5e 3e d2 c2 14 bb ec 41 09 be
       -0.09178201 0.21686754 -0.002269913 -0.13404053
0001c0 fe 2b bf be aa 4d 95 be 22 ca bd bd 92 97 d8 3a
       -0.3733825 -0.29160815 -0.092670694 0.0016524664
0001d0 c3 08 c4 bd 5b 6c a5 be bd 03 10 be 45 d8 fa bb
       -0.09571984 -0.3230923 -0.14063926 -0.007655176
0001e0 31 c2 57 bc d8 e5 1b bd 11 71 23 bd 01 b1 09 be
       -0.013168857 -0.038060993 -0.03990275 -0.13446428
0001f0 7f 03 a8 3e a9 c5 62 3c 15 76 5c bd e6 dd f0 bc
       0.32815167 0.013841071 -0.05382355 -0.029402684
000200 85 70 dc bd c9 5d 2f be 6e 5d 41 3c 97 6c 2a bd
       -0.10763649 -0.1712562 0.0118020605 -0.041607466
000210 bc 5f 81 be 14 32 9c be d1 f1 ef be cd 56 6b 3c
       -0.25268352 -0.30506957 -0.4686418 0.014363957
000220 94 a4 aa 3d 2a f0 11 bd 9e 94 36 be 1a 3a d1 bd
       0.08332172 -0.03562943 -0.1783013 -0.1021616
000230 ea 31 92 3b 18 70 3a be a6 88 4c be c6 15 f5 bd
       0.0044615166 -0.18206823 -0.19974002 -0.119670436
000240 12 eb f4 3d 9b 8c 41 3e da 83 53 3c 5d 21 e0 be
       0.119588986 0.18901293 0.012909854 -0.43775454
000250 ab 2e 03 bf 07 96 3e be b7 f1 8c bd ca ba 6b 3c
       -0.51243085 -0.18611918 -0.06882041 0.014387796
000260 36 79 df bd 79 23 4b be e3 ec 6f be a2 e5 7e be
       -0.10911791 -0.1983775 -0.23430209 -0.24892285
000270 97 19 86 be 91 27 87 be 48 2d 25 be 6a bc d2 bc
       -0.26191399 -0.26397374 -0.16130555 -0.025724608
000280 fb b7 31 be 8f 0b 96 be 41 49 53 be f4 29 41 3e
       -0.17355339 -0.29305694 -0.20633413 0.1886366
000290 3c 56 ca 3e cb 5d b6 bc 1c 64 b4 3d 93 55 04 be
       0.39518917 -0.02226152 0.08808157 -0.12923269
0002a0 ad 5e c5 bd d4 69 f3 bd 03 ab 27 be 48 92 1e 3e
       -0.096371986 -0.118854195 -0.1637383 0.1548549
0002b0 09 88 90 3e f8 b9 e9 3d 3e 81 81 be 70 ac 0e 3d
       0.28228787 0.11412424 -0.25293916 0.034832418
0002c0 26 a7 e9 bc 87 a3 f2 3a 79 fc 4b 3d 7f bc 7b bd
       -0.028522085 0.001851187 0.049801324 -0.06145906
0002d0 47 18 cb bc d7 e3 59 3d b6 c0 3c 3d 10 40 cb bc
       -0.02479185 0.0531958 0.04608222 -0.02481082
0002e0 7a 59 e2 bd 98 01 17 bc be 14 18 3d 7e a3 7d 3c
       -0.110522225 -0.009216689 0.037129156 0.015480874
0002f0 b8 65 48 3b 11 c1 0b 3d f0 06 6f bc d3 41 6f bd
       0.0030578207 0.03411967 -0.014589056 -0.058412384
000300 83 cf 17 3c 0c 76 ea 3b 01 79 9a 3d 3b 23 7e bd
       0.009265783 0.0071551856 0.07542611 -0.062045317
000310 f5 f0 c4 bc 75 58 32 3c a8 b7 7f 3d 6a e8 29 3c
       -0.024040679 0.010885348 0.062431008 0.010370353
000320 a3 68 fc bb 7f fd f0 3c 93 4f 57 3e 4c e1 66 3e
       -0.0077029034 0.029417751 0.21026449 0.22546881
000330 43 65 1e 3e 61 c5 a2 bb 81 b2 a1 bc 94 f4 91 bd
       0.15468316 -0.004967377 -0.019738438 -0.07126728
000340 6a f7 03 be 96 3d da 3c 93 33 1f bd 62 3c af bd
       -0.1288735 0.026640695 -0.038867544 -0.08556439
000350 5a f0 76 be 07 aa 93 be a9 5f b2 be 7d 83 c6 bd
       -0.24115124 -0.28840658 -0.34838608 -0.09693048
000360 75 92 cd bd b8 ef 92 be 33 81 28 3e 9a db c7 3e
       -0.100377 -0.28698516 0.16455536 0.3903473
000370 79 bb a5 bd 09 bd 10 be e8 a1 c3 be ed ae 9a be
       -0.08092398 -0.14134611 -0.38209462 -0.30211583
000380 ca 1f 6f bd 90 3a 84 3d 72 0a 00 bd d9 4a be ba
       -0.058379926 0.064564824 -0.03125996 -0.0014518156
000390 8c 6f 95 3c e4 b0 24 3d b8 3d 03 bd 40 25 16 be
       0.018241666 0.04020776 -0.03204128 -0.14662647
0003a0 e4 ad 23 be 2d 91 03 be 14 ba cc bd 5a 26 0e bd
       -0.15984303 -0.12848349 -0.09996429 -0.034704544
0003b0 ea 29 c1 bd 03 db d6 bd 40 6f a9 bc 43 d4 a2 bc
       -0.094318226 -0.10490992 -0.020682931 -0.019876605
0003c0 58 47 b0 bd 74 db 14 be 98 fd d9 bc d6 97 a1 3c
       -0.08607358 -0.1453684 -0.02661018 0.019725721
0003d0 0f ee b8 bd 32 39 9a bc 53 30 d4 3c c3 1f e5 bc
       -0.09029781 -0.018826101 0.025901949 -0.027969247
0003e0 eb e2 3d 3d 1b e4 9d bd 81 c9 b7 b9 9a 69 71 bd
       0.046358984 -0.07709523 -0.00035054612 -0.0589386
0003f0 b6 68 d8 3d 99 a8 22 3e 27 8e 5b 3e 9f 09 ef 3d
       0.10566847 0.15884627 0.21440946 0.11671757

fc1.bias f4 [120]
000000 e5 66 a1 bd 19 c1 56 bd 2a d6 2e bb 89 24 61 3e
       -0.07880954 -0.052430246 -0.0026677945 0.21986593
000010 41 79 0d bd 0c 82 35 3d 59 65 e5 3c 45 36 f2 bc
       -0.034539465 0.044313475 0.028002428 -0.029566893
000020 63 fa 2f bd 86 b7 c9 bd 1c 18 e5 3e 43 98 ee bc
       -0.042963397 -0.098494574 0.44744956 -0.029125338
000030 ef 66 11 bd 06 94 26 3d 4a b1 c7 bd 9f d3 25 3c
       -0.035498556 0.04066851 -0.09750612 0.010121255
000040 a8 6b 18 3c 10 0e 88 bc 07 c7 0b 3e 7d 45 fe bd
       0.009303011 -0.016608268 0.13650142 -0.124155976
000050 46 09 19 bc c1 9c bc 3d 59 f1 1e be 2e 37 e6 bd
       -0.00934059 0.09209586 -0.15521754 -0.112409934
000060 b2 6d 3d bd 23 e4 35 3e a0 96 79 3c b0 cc b1 bc
       -0.04624719 0.17762809 0.015233666 -0.021704048
000070 80 ce 81 3b 3d be 22 bd 7f 53 59 3c 64 b9 26 bd
       0.0039613843 -0.039732207 0.013264536 -0.040704146
000080 f2 bb 82 3d 49 af 1d 3e 67 c9 e5 bc d6 65 d8 bc
       0.06383504 0.15398897 -0.028050138 -0.026415747
000090 db 95 f8 bd 18 ab 33 bb cc ea 8b bd 87 6d 38 3b
       -0.12137958 -0.0027415212 -0.06831893 0.0028141455
0000a0 d8 8e dd bc 93 02 84 3d e3 78 86 be c9 17 6d 3d
       -0.027045652 0.064458035 -0.26264104 0.05788401
0000b0 0c 91 f1 3b 6a 3c 60 3c ec 52 71 bd b4 2d f7 bd
       0.0073720273 0.013686279 -0.05891697 -0.12069264
0000c0 7f e7 4a 3d 0c 3d e7 bd c1 dc 55 bd 70 c9 b7 bd
       0.049537178 -0.11290941 -0.05221248 -0.08973968
0000d0 7d fc 45 bd 92 72 f9 bb d6 4c 18 3d bf e2 92 bd
       -0.048336495 -0.007612535 0.03718265 -0.07172155
0000e0 5a f5 11 bd be d3 9e bc 07 91 16 3e 69 9e c0 bd
       -0.035634376 -0.019388076 0.14703761 -0.09405214
0000f0 46 9b 9d 3d 86 bf 25 bd 50 2b d3 3c 9b bb aa 3d
       0.07695632 -0.040465854 0.025777489 0.08336564
000100 5e 22 21 3e 63 b1 07 bc 5f 81 4d be 17 8d 69 bd
       0.15735766 -0.008282038 -0.20068882 -0.05701932
000110 09 e1 09 3e c8 0b 2b bd 4c b3 85 bd e0 4f 00 3e
       0.1346475 -0.041759282 -0.06528339 0.1253047
000120 0a 71 8d bd ac ab 0c 3d 0a 8f ce 3c a0 94 c6 3d
       -0.06906326 0.034343407 0.02521469 0.09696317
000130 c5 30 3b 3e cb 26 30 3d 7d 68 f7 b9 3b df cd 3e
       0.18280323 0.043005746 -0.0004718936 0.40209374
000140 12 80 cd bc e9 91 ea 3c af c1 c3 bc 3d ed 95 3d
       -0.025085483 0.028634029 -0.023896066 0.0732064
000150 4a 85 4a be cd 81 9d 3d f2 c8 6d be 62 e1 88 bb
       -0.19777408 0.07690773 -0.23221186 -0.0041772583
000160 07 e4 77 ba fc de 17 be ce 18 c6 3c 70 b8 98 3d
       -0.0009456281 -0.14831156 0.02418175 0.07457054
000170 0b 61 02 bc e2 0f 0b bd 77 a0 ad 3d d3 aa 1f 3d
       -0.007957707 -0.033950694 0.08477872 0.03898127
000180 0e 86 98 bd 42 c4 42 bd 5d 80 59 3c 7a b9 e8 bc
       -0.07447444 -0.047550447 0.013275233 -0.028408755
000190 ac 60 41 3c 54 01 bd bd 21 ab 09 bd da 88 ac 3d
       0.0118028335 -0.09228769 -0.033610467 0.0842454
0001a0 92 48 7b be 93 6a a6 3c 2b 1a 22 bc 65 e1 bf bd
       -0.24539402 0.02031449 -0.009893934 -0.093691625
0001b0 ac 00 c7 3d 11 dd 01 bd 8e 0e 0d 3d 7d 7c ac bc
       0.09716925 -0.031704966 0.03443771 -0.021055454
0001c0 aa 74 8f bd a2 e7 6c bd e0 7b 0f 3c fa 96 8c 3c
       -0.07004674 -0.05783809 0.008757561 0.017161835
0001d0 58 8b b6 3d a7 62 25 be ef 2c ed bd 10 10 46 3e
       0.089132965 -0.16150914 -0.11580836 0.19342065

fc2.weight f4 [84, 120]
000000 c4 09 2a be 52 a0 a4 bb 43 28 04 be 49 3c 98 3d
       -0.16605288 -0.0050239945 -0.12905984 0.074333735
000010 85 00 bf be 8d ac 32 bb 95 1f 8f bd c4 7f 84 3d
       -0.37305084 -0.0027263493 -0.06988446 0.06469682
000020 fe e0 5f bd 8c 97 4f 3d 05 f0 16 be f1 fc ac 3d
       -0.05465793 0.050681636 -0.14739998 0.08446682
000030 81 92 33 3d 87 af 29 3d 00 82 94 be 2f 39 b4 3d
       0.04384089 0.04142716 -0.29005432 0.087999694
000040 c1 a4 bf 3d cc e6 af bd ba ba 45 ba cd c3 f3 3d
       0.09357596 -0.08588943 -0.0007542778 0.119025804
000050 07 68 4a 3d 0e 80 26 3c 0b 6c 44 bd 2e 5f 9d 3d
       0.049415614 0.010162367 -0.0479546 0.0768417
000060 52 4c bb bc 2e 0b f7 3d b4 5a 34 bc 63 d2 7c 3c
       -0.02286354 0.12062679 -0.011007953 0.0154310195
000070 82 1d aa bd 49 a7 99 bd a8 12 8e bd 90 df 8d 3d
       -0.083064094 -0.0750261 -0.06937152 0.06927407
000080 33 85 34 be b6 cc 97 be 88 f1 74 3c fa fe b4 bd
       -0.17628936 -0.2964837 0.014950164 -0.088376954
000090 8f b8 78 3e 85 75 b6 3c 60 52 cb 3d fc e9 57 bd
       0.24289154 0.022272835 0.09927821 -0.05271338
0000a0 b2 55 86 bc 8e e8 2c 3d 50 8b a6 be bd bb 66 be
       -0.016398285 0.04221397 -0.32528162 -0.22532554
0000b0 ec 0b 85 bd 0a 69 01 3e 90 51 59 3d 8a 67 3c bd
       -0.064964145 0.12637725 0.0530563 -0.04599718
0000c0 f5 e8 16 3e d6 07 13 3e 77 0c eb bd 32 1f 24 be
       0.14737304 0.14358458 -0.11476987 -0.16027525
0000d0 87 0a 57 3d be ab c1 3d 0c 82 ed 3c 1c dc d1 bd
       0.052500274 0.09456585 0.028992675 -0.10247061
0000e0 c3 85 20 be f7 ba f9 3c 5b bf b6 bd 09 ca 1c be
       -0.15676026 0.03048466 -0.08923217 -0.15311445
0000f0 1a 30 cd bd 00 e2 75 3d 4f 3c 95 3d 3e eb 15 bd
       -0.1001894 0.060029984 0.072868936 -0.036601298
000100 8e 08 b7 bc e6 ce a6 3d 8e 8d 38 3e 37 a0 3e 3a
       -0.022342946 0.081449315 0.18022749 0.00072717987
000110 89 fb e4 3c c4 cf 8c 3d 70 88 80 bc 23 57 12 be
       0.027951973 0.06875566 -0.015690058 -0.14291053
000120 54 18 bb 3d 95 b6 03 3c 4a 32 91 bc 1d 77 5b be
       0.091354996 0.008039136 -0.017724175 -0.21432157
000130 5c bd 30 be 3b f7 36 bd 02 91 a9 bd f7 19 09 be
       -0.17259735 -0.04466937 -0.08279611 -0.13388811
000140 72 92 89 bd 28 70 b4 bc bd 61 47 3d 9f e1 24 be
       -0.06717385 -0.022026137 0.048677195 -0.16101693
000150 d1 1d 33 bd 73 d7 dd bc dd 79 be 3c 70 37 b5 bd
       -0.043729607 -0.027080273 0.023251468 -0.088484645
000160 aa 66 a5 bd 8d f0 0b bc 98 c5 1c bd a8 78 4d bd
       -0.08076222 -0.0085412385 -0.038274378 -0.050163895
000170 96 b9 54 3d 05 e3 87 bd da 14 88 3c 3c 16 75 bd
       0.0519348 -0.066350974 0.016611505 -0.059835657
000180 1f dd 09 be 26 41 9e bb 66 a3 37 ba 05 7b 0d bd
       -0.13463257 -0.0048295436 -0.0007005244 -0.03454115
000190 08 8a 3e bd 78 6c 49 3e da ee e6 3d 85 d0 a6 bd
       -0.046518356 0.19670284 0.11276026 -0.08145241
0001a0 9d 7b 81 3e dc 20 61 bd 13 e8 e9 3d 4c 0c a2 bc
       0.25289622 -0.054962978 0.11421218 -0.019781254
0001b0 58 39 7c 3e 84 02 a1 bc 24 03 fa bc c1 a1 04 be
       0.2463125 -0.01965452 -0.030519076 -0.12952329
0001c0 31 20 14 bc 62 cb d9 3d bd bb 96 3d ab fe 01 3e
       -0.009040878 0.10634495 0.07360027 0.12694804
0001d0 88 5f 0e be 64 29 02 bd 91 01 30 3d 2b aa a9 bc
       -0.1390363 -0.031777754 0.042970244 -0.020711025
0001e0 24 26 ac 3c d5 14 b3 3b 7b dd fd 3d 42 16 6c bd
       0.02101428 0.00546513 0.1239576 -0.057638414
0001f0 5c 54 c4 3c b0 5e b4 bb 71 ac f8 3b 48 19 b0 3d
       0.023966007 -0.0055044517 0.007588916 0.08598572
000200 42 23 7e 3d bc 95 b2 be 67 af 9c 3e d5 74 3c bc
       0.062045343 -0.34879863 0.3060257 -0.011502464
000210 98 84 60 bd 2d fa 78 3d 5f 5a 0c be 54 c7 21 3d
       -0.05481395 0.06078546 -0.13706349 0.039496735
000220 77 7b 43 3c ce 4d 00 bd e4 df 90 bd 10 a2 19 bb
       0.011931292 -0.0313242 -0.07073954 -0.0023442544
000230 c1 06 72 3d ea 2e 4b be 92 a7 22 bd 1f 6b 27 3c
       0.059088472 -0.19842115 -0.03971059 0.010218411
000240 ca 98 b0 bd 9f 7b 36 3e f2 39 81 3d bb b2 17 be
       -0.08622892 0.17820595 0.0630988 -0.14814274
000250 9b 2e 37 3e 2d 0d 83 bd 6e 6c 2d bd a1 61 48 bd
       0.17888872 -0.063989975 -0.042339735 -0.04892123
000260 54 17 4f 3e 62 ad 68 3d fd 5c b7 bc 3d 93 49 3c
       0.20223743 0.056805976 -0.022383207 0.012303171
000270 32 4f 94 be 29 48 c8 bd 34 3b a5 3d e6 ca 06 3e
       -0.2896667 -0.097793885 0.08067933 0.13163337
000280 3a 06 ab 3c ab 88 8b 3e 9d df 56 be f1 f9 91 be
       0.020876992 0.27252707 -0.20983739 -0.28511003
000290 9d 9d d5 3c 9b e0 36 3e 49 20 b1 bd 8b 9f 02 bc
       0.026076132 0.17859118 -0.08648736 -0.007972608
0002a0 7f fb 12 bd 45 a5 72 bd 47 4e 2c bd de 79 c0 be
       -0.035884377 -0.059239645 -0.04206684 -0.37592977
0002b0 62 95 b2 bd 8b d5 25 3d 7a 5d 07 3e de 9d bd 3d
       -0.08719899 0.040486854 0.13219252 0.092586264
0002c0 f9 78 8e be 9a 83 d1 bc 34 49 53 3e f3 14 1a be
       -0.2782667 -0.025575448 0.20633394 -0.15047054
0002d0 fa 6b 6f 3e 0e c9 5e bd 74 b6 3b 3d d9 d6 d1 3e
       0.23381034 -0.05439096 0.045828298 0.40984228
0002e0 66 46 fb 3d 44 be 3c bd a4 b3 d3 bd 68 c1 ad bd
       0.12269287 -0.04607989 -0.10336998 -0.08484155
0002f0 07 eb fa bd 0d 1b 46 3d 0b 58 9c bd b6 ad d8 3e
       -0.12251859 0.04836564 -0.0763398 0.4232003
000300 c7 51 f1 bc 5c 87 1c bd a7 9f 58 3d 3d 4d 62 3e
       -0.02945794 -0.038215026 0.05288663 0.22099777
000310 16 24 38 3e 0f 64 77 3e a8 1f b6 bc 83 64 e1 3e
       0.17982516 0.24159263 -0.022231892 0.44021997
000320 e7 8d d1 bc fb b4 07 3d 1a 4e d9 bd 2a 61 24 3e
       -0.02558036 0.03313158 -0.106106 0.1605269
000330 b1 8c 3d bd b4 b8 2b 3e 30 85 c5 bd 21 45 1e be
       -0.046276752 0.16769677 -0.09644544 -0.15456058
000340 83 2d e1 3b 5d bc 8f 3c 4f 3d 3b bd ae 03 e3 bd
       0.0068718805 0.017545873 -0.045712765 -0.11084686
000350 c6 b3 13 3e b1 4e a3 bd d4 0f ce bd 79 d8 4f 3d
       0.14424047 -0.079739936 -0.10061613 0.050743554
000360 ee 3e df bc 77 29 4a 3c 1f fb 21 bd 09 55 6d 3d
       -0.027251687 0.012338988 -0.03954613 0.057942424
000370 53 17 83 3d 21 02 b7 bd 12 99 80 3d d6 eb 93 be
       0.06400933 -0.08935953 0.06279196 -0.28890866
000380 c4 d8 9a be b2 ea cf bd 5a c3 e7 bd f5 86 8e bd
       -0.30243504 -0.101521865 -0.11316557 -0.06959335
000390 b0 86 1e 3e c4 85 48 be e3 9d 78 3d 7b 3a a3 3c
       0.15481067 -0.19582278 0.060697448 0.019925347
0003a0 e0 1e c2 bc 4c 32 b4 3d 6c b8 56 3d f1 d5 19 3d
       -0.023696363 0.08798656 0.052421972 0.037557546
0003b0 ff e4 4d be a6 b0 72 be 22 15 8c be 0c 0e b7 bc
       -0.20106886 -0.23700199 -0.27359873 -0.022345565
0003c0 11 e5 5a be 34 ca 1b bd 5b ac 81 be bb ae 2a 3c
       -0.21376444 -0.038034633 -0.2532681 0.010417636
0003d0 e3 ae 2c be 88 98 b6 bd 49 ff a7 bd 40 90 a6 be
       -0.16863589 -0.08915812 -0.08202989 -0.3253193
0003e0 9a bb 09 bc f3 8f b1 be 9b c5 37 3c 78 25 36 be
       -0.008406544 -0.34680137 0.011216546 -0.1778773
0003f0 7f e3 eb bc 71 a9 d6 bd cd 88 86 be 3a df 8e 3c
       -0.028795002 -0.10481537 -0.26276246 0.017440427

fc2.bias f4 [84]
000000 77 7e e1 3d 4a dc 7a bd 1b fb 37 3d 24 fe 98 bd
       0.110104494 -0.06124524 0.044917207 -0.074703485
000010 04 ae 8c 3e 3d 44 1c 3d 42 ac 98 3e 55 85 fb 3e
       0.27476513 0.038151015 0.29818922 0.49125162
000020 ba 3d 14 3e 71 9d 8b bd 9a 5f 90 3c 1b 82 0b be
       0.14476672 -0.06817139 0.017623711 -0.1362385
000030 9f c6 4d 3d 9f d7 34 3e 03 49 03 3e b4 77 23 bd
       0.050238248 0.17660378 0.1282082 -0.03990908
000040 2d 80 25 bb 74 c7 35 bc b5 ad c2 3c b9 13 e4 bd
       -0.00252534 -0.011094917 0.02376447 -0.11136574
000050 ef 21 39 3c dc 38 04 3f ec db 81 bd fd ad 82 3e
       0.011299594 0.5164926 -0.06340775 0.25523368
000060 95 7f 2d 3e 11 a6 b3 bc 46 84 14 bd 7f 58 24 be
       0.169432 -0.021929773 -0.03625896 -0.16049384
000070 cc 50 04 bd 95 b0 94 be c9 ff 83 3d fc 50 42 3e
       -0.032303616 -0.2904097 0.064452715 0.18976206
000080 a8 de 83 bd 54 6c ec 3e 84 37 5d 3c 96 36 fe 3d
       -0.06438953 0.46176398 0.0135020055 0.12412755
000090 3a f9 b1 bd 8a 5d 8a bd 00 96 c4 3e f9 1d 93 3e
       -0.08690114 -0.067561224 0.3839569 0.28733805
0000a0 34 ce 26 be 8a 4e 47 3e bf bb 19 be 36 39 2b 3d
       -0.16289598 0.19463554 -0.15013026 0.041802607
0000b0 a7 d6 0a 3e d6 6e 8c 3e b2 4a 63 3d a4 d9 2d 3e
       0.13558446 0.2742831 0.055491157 0.16977555
0000c0 be b7 15 3f 9a 69 07 3d 1d c1 4d 3e 06 2d f0 bd
       0.58483493 0.033059694 0.20093198 -0.117273375
0000d0 b7 a2 ed 3d 0b 50 a1 bc 68 eb 74 3d aa b4 bf bd
       0.11603301 -0.019691488 0.059794813 -0.09360631
0000e0 48 7f a2 3c 5e ce 04 be 5d f6 82 bc 77 ac 67 3d
       0.019836083 -0.12969348 -0.015986616 0.05656096
0000f0 d1 f3 f2 3d 53 0c 3e bc e4 74 4e 3e 29 c4 2a 3e
       0.118629105 -0.011599618 0.20161778 0.16676392
000100 2a 79 64 3e 39 c4 c6 3e 07 a2 96 3e 5b ff a9 bc
       0.22311845 0.3882158 0.29420492 -0.020751646
000110 f6 f3 44 3e 32 df 83 3d 8b ab c3 bd 9a 9c c1 bc
       0.19233689 0.064390555 -0.095542036 -0.023634244
000120 e2 59 e3 bd 3a fd 16 3e 1c d7 62 3d bf 6e 8c 3d
       -0.11101128 0.14745036 0.055380926 0.06857061
000130 9c 61 da 3e bb 3c 1c be 0a d7 bf bd b7 d1 d7 3d
       0.42652595 -0.15257542 -0.09367187 0.10538047
000140 2b 34 2c 3e f5 39 0a 3e 77 b2 c8 bc e8 bf 73 bc
       0.16816776 0.13498671 -0.024499161 -0.014877297

fc3.weight f4 [10, 84]
000000 38 4a ee 3c 38 9e 9b 3d ba e9 dc 3c 8f 08 46 be
       0.029088125 0.07598537 0.026966918 -0.19339202
000010 e6 d2 2d be 5f 3b b2 bd 59 d1 19 3d 5a 42 16 be
       -0.16974983 -0.087027304 0.037553165 -0.14673749
000020 ed 62 75 3e 5d ce 24 3c 87 db 07 3d 8c 69 66 bd
       0.23963518 0.010058966 0.033168342 -0.056253
000030 86 da e1 3d 7d ae 3b be c2 fc 7b 3e 8c 05 30 bd
       0.11028008 -0.18328281 0.24608138 -0.04297404
000040 9c 6e 1a 3d ec 7d 25 bd 63 da 0f 3f 14 4e 47 3e
       0.03770314 -0.04040329 0.56192607 0.19463378
000050 9c f2 44 3e 04 9f 62 bc 9d 9b b2 bc 2e 47 a2 be
       0.19233173 -0.013831858 -0.021802718 -0.3169493
000060 57 2d 41 3e 71 8a 2a be c1 df 65 3e 0b e3 a2 3e
       0.18864952 -0.16654374 0.22448637 0.31813845
000070 15 11 aa be f0 35 25 bd 09 a4 7e be 16 e7 3f be
       -0.33216158 -0.040334642 -0.24867262 -0.18740496
000080 db ca 4a ba 99 8b 4f be 90 1c 34 3e 09 7f 47 bd
       -0.00077359163 -0.20268096 0.1758902 -0.048705135
000090 f1 74 f7 3d f1 b0 c7 3c e4 29 b0 3c 28 fa 09 be
       0.12082852 0.024376364 0.02150435 -0.13474333
0000a0 34 d7 e1 bb 49 cc 6d be ab a3 10 3e 9a c8 9f bd
       -0.0068921093 -0.2322246 0.14124934 -0.078019336
0000b0 40 32 a9 be 24 d2 48 be 41 a7 f3 3d 8a 8b 4d be
       -0.3304615 -0.19611412 0.118971355 -0.20072761
0000c0 c7 c8 af be 16 a9 dc 3d 5f 1a 64 3e f7 aa 04 3e
       -0.34332868 0.10774438 0.22275685 0.12955843
0000d0 19 a7 42 be 97 0b de 3b a9 0a 0d bf f5 96 57 bd
       -0.19009055 0.006776284 -0.5509439 -0.0526342
0000e0 5d 30 0a be ae 19 cc 3d e1 e9 f8 bc 34 74 73 bd
       -0.13495012 0.099658355 -0.03038496 -0.05943699
0000f0 94 ac 43 3e 21 b5 2c be 3d 60 3a be 6c 28 f2 bd
       0.19108802 -0.1686597 -0.18200774 -0.11824116
000100 a5 18 8d 3e cc 85 9e be b3 da b1 bd 6a be ce be
       0.27557865 -0.30961454 -0.08684292 -0.4037965
000110 47 72 ec bd ad 10 69 be 53 de 2b 3e 89 27 01 bd
       -0.11545234 -0.22760268 0.16784029 -0.031531844
000120 7f 9c 20 3e 1c a4 f7 bd ce 5e 88 3d 5c dc 99 3e
       0.15684699 -0.12091848 0.066587076 0.30050933
000130 f8 8c 00 bf 1e 10 e2 3d 79 39 71 3e 8d 46 11 be
       -0.502151 0.1103823 0.2355708 -0.14187069
000140 54 b8 8b be 0a ac 81 be 54 9c 71 3e 15 fe 48 3e
       -0.2728907 -0.25326568 0.2359479 0.19628175
000150 e0 33 76 be 18 6c ec 3e ea 97 00 bf da 19 2c bb
       -0.24043226 0.4617622 -0.502318 -0.0026260526
000160 a8 f5 b9 3e c9 75 89 3e 8c e3 4b 3e 0c b0 ad be
       0.36320233 0.26847675 0.19911021 -0.33923376
000170 ec 28 ab be 4f 49 1e 3d cc 80 f5 bd e5 f1 88 3c
       -0.33429658 0.03864413 -0.11987457 0.016716907
000180 ed ed 18 3e c0 aa 9d be 6a e6 a8 bd db fc 83 bd
       0.14934511 -0.30794334 -0.08247073 -0.06444713
000190 3d a0 85 3e c1 2d 5b 3d 37 05 80 be 19 aa 03 be
       0.26098815 0.05351043 -0.2500398 -0.12857856
0001a0 08 99 9f be dd 0d ed be ff 15 a2 bd 44 f9 fb 3d
       -0.3117144 -0.4629964 -0.07914352 0.12303403
0001b0 bb 68 a3 be a5 7c 13 3e c0 d6 cc 3d 9d fc 8b bd
       -0.3191584 0.14403017 0.10001898 -0.068352915
0001c0 64 9b 8c bc 0d 03 66 3e 76 f0 d1 3e 9a db 03 3e
       -0.01716394 0.22462101 0.4100377 0.1287674
0001d0 8e 22 9f 3e b8 a8 70 be c1 16 38 3e 1e dc 8b be
       0.3108105 -0.23501861 0.1797743 -0.27316374
0001e0 c9 fe b5 be 72 62 86 3d 98 ee e4 3e 32 27 53 be
       -0.35545948 0.06561746 0.44713283 -0.2062042
0001f0 84 6d 1b 3d c5 c5 4a bc 8a e9 03 be 5f 20 a9 3e
       0.03794624 -0.0123762535 -0.12882057 0.3303251
000200 61 a3 24 3e 4a 23 38 bc cf bb 08 be 58 e7 c8 bd
       0.16077949 -0.011238882 -0.13352893 -0.0980975
000210 0b 91 e6 3c 59 8f 3c be 09 1b 51 3e e8 57 8c bd
       0.028145334 -0.18414058 0.2042047 -0.06852704
000220 80 23 82 be df 99 26 be 56 3e 66 be 3d 64 39 bd
       -0.2541771 -0.16269635 -0.22484717 -0.04526161
000230 f9 0e a6 3e 4b 41 c9 be 21 16 17 bd 3f 8a 3e 3d
       0.32433298 -0.39307627 -0.03688634 0.04651856
000240 1a 0d 10 3e a3 bd 9e 3d c7 4f 4b be b1 f7 36 3b
       0.14067498 0.07751014 -0.19854651 0.0027918632
000250 fa 09 49 3e d5 b4 91 3e 0c b2 79 3e 97 e1 d9 3d
       0.19632712 0.28458276 0.24384326 0.10638731
000260 39 a6 51 be 92 ef d1 3e 61 fb 8c bd f0 8c 35 3e
       -0.20473565 0.4100309 -0.06883884 0.17729545
000270 12 4e fc 3d 2c 89 a3 ba 43 d9 05 bd 5f df 64 be
       0.12319578 -0.0012476793 -0.0326779 -0.22350834
000280 01 da 48 be d9 e1 41 be 25 d7 4f be 72 c5 92 3c
       -0.19614412 -0.1893381 -0.20296915 0.017916415
000290 f5 65 44 3d 4b 86 07 3c ac cc 1f be 4a 97 d0 be
       0.047948796 0.008271764 -0.1560542 -0.40740424
0002a0 34 af 96 3e 66 1d 24 be 56 3e c0 b9 f7 71 8c bd
       0.29430544 -0.1602684 -0.00036667538 -0.068576746
0002b0 ca 0d b9 be 3c cb e6 3d ea 7d 78 3d f2 38 85 3d
       -0.36143333 0.11269233 0.060666956 0.06505002
0002c0 a8 f3 2e be 89 b9 4b 3e 50 1a f0 3b 03 ea f9 bd
       -0.17085135 0.19894995 0.0073273554 -0.12202837
0002d0 ed c0 88 bc 16 06 99 3c 56 9b 88 bd 1e aa 7d 3b
       -0.016693557 0.01867966 -0.06670253 0.0038706134
0002e0 de 77 c9 bd 73 d3 9c bd 4f ff 1d bc 70 2c 19 be
       -0.09837316 -0.07657518 -0.00964339 -0.14958358
0002f0 71 cd 70 3e 99 53 77 3e 99 4c 1b bd 62 6f c2 3e
       0.2351587 0.24152984 -0.037914846 0.37975603
000300 f3 55 05 be 96 ed aa 3e 2e 1b 8d bd 72 d3 09 bc
       -0.13021068 0.3338439 -0.0688995 -0.008412229
000310 f3 45 c6 bd 7e e7 f4 be 43 33 5b 3e d0 19 7a 3e
       -0.096813105 -0.47832865 0.21406274 0.24423909
000320 7a f3 19 be 28 48 e9 bd f8 65 95 3d 82 87 3a 3e
       -0.15034285 -0.11390716 0.072948396 0.18215755
000330 2c c0 a9 3d d7 d5 95 bd e8 d5 ed 3c f2 97 d2 bd
       0.08288607 -0.07316177 0.029032663 -0.102828875
000340 27 0e 8e bd ae 5c 00 be d7 9f 03 3e 46 fb 58 be
       -0.06936293 -0.12535354 0.12853943 -0.21189603
000350 2a 3e 79 be 77 ae 3b be 39 b4 81 3e 9b 5d 33 be
       -0.2434012 -0.18328272 0.2533281 -0.17516176
000360 8a b2 d1 bd f4 77 8a 3e dd 4c a0 3e 19 74 91 3e
       -0.10239132 0.27044642 0.31308642 0.28408888
000370 ad 8d 6c 3c 94 ee 41 bc 92 9a 84 be 97 c9 f9 3d
       0.014438075 -0.011836667 -0.25899178 0.12196653
000380 d7 7f 30 3d 54 d9 fb 3d 49 b0 a6 bc e5 ac 58 be
       0.043090668 0.122973114 -0.020347731 -0.21159704
000390 ac 79 6a 3d 54 e4 b3 3e 92 c7 25 3e b9 68 83 be
       0.05724494 0.35135138 0.16189411 -0.25665835
0003a0 6e 6e d2 bd 63 30 ab 3e 9d 99 42 be c2 1f 96 3b
       -0.10274969 0.33435354 -0.19003911 0.0045814225
0003b0 19 4e 84 3e d6 8c 92 3e 54 8c 31 be 3c c1 2e 3e
       0.25840834 0.28623074 -0.17338687 0.170659
0003c0 ff 25 db 3d 1b 31 ae 3e d0 71 ae 3b d2 f7 c3 be
       0.107006066 0.3402184 0.005323626 -0.3827501
0003d0 e3 68 b7 bd 2a 26 7a be 78 51 01 be 72 b4 e9 bb
       -0.089555524 -0.24428621 -0.12628734 -0.0071321065
0003e0 60 e3 4f be da ea 7f 3e 08 c8 a7 bb 80 ae 0c 3e
       -0.2030158 0.24991933 -0.005120281 0.13738441
0003f0 a3 26 bf 3d 8c 74 09 be 8b 97 17 be 08 75 31 bd
       0.09333541 -0.13423365 -0.14803903 -0.0433245

fc3.bias f4 [10]
000000 38 f3 2c be ed 25 d2 3c 58 2c 2f bc 7b 98 99 3d
       -0.16889656 0.02565285 -0.010691725 0.074997865
000010 d9 50 b4 3d d1 5e 60 3d 87 05 86 bf 21 a5 08 be
       0.08804483 0.054777924 -1.0470437 -0.13344242
000020 4a 3e 49 3f f3 5b 8b 3d
       0.7861067 0.06804647
